results/ppo/Fly/Fly-2688.onnx (onnx, 82110 bytes, 15 tensors)

discrete_act_size_vector f4 [1, 5]
2.0 2.0 1.0 1.0 1.0
00000000: 0000 0040 0000 0040 0000 803f 0000 803f
00000010: 0000 803f

network_body._body_endoder.seq_layers.0.weight f4 [128, 1]
-0.67122376 0.023063585 -1.991212 0.39217487 0.98853874 -1.3516141 -0.47901466 1.3922707
0.7009227 0.7256115 0.69318646 0.97452307 -0.6829791 -1.3033763 1.6289728 0.7276542
0.9846139 0.6921579 -0.5656235 -2.386167 -0.6204831 3.1103027 1.019674 -0.2223853
0.15876478 -0.34434032 0.40934324 0.06267002 -0.97430277 2.3639095 0.07410356 -0.5119392
1.0989285 1.7171171 0.98687935 0.37032148 0.88599217 1.5430983 -1.515945 0.6833523
-0.4692058 0.38076344 -0.03950292 -1.2506721 -0.06340984 1.2804672 -1.0778667 -0.55587524
-1.309044 1.4536737 0.051249392 0.92625904 0.05868259 0.058218617 -1.167673 -0.33577305
-0.38684794 -0.9582987 0.076113716 1.3578731 -0.05426998 0.35378826 0.41756502 -1.6176722
-0.31333405 0.9615107 2.0199635 -1.0196328 0.8183422 -0.2236903 -1.658616 -0.9410261
-0.41970876 -0.121363 0.9355672 -1.2710137 -0.9360493 -1.6932229 -2.7071378 1.0935559
-1.3719319 -0.2524019 -1.6882212 -0.09467053 -0.65568036 0.0366267 1.0556109 -0.69590116
1.6252266 -0.6521881 0.13398775 1.7519873 0.720841 -1.6618447 -1.6522632 -0.35656202
1.4914857 1.0037661 -1.0951943 0.41277134 -2.2711499 -0.27285886 0.5065476 -0.43135875
0.44174355 -0.92592406 0.92693126 0.6021836 1.7637529 -0.11922531 0.88180554 0.112929516
0.18983193 1.3568523 -0.77775437 -1.252857 -1.0085381 -0.28606755 0.30828282 0.56983167
0.18882905 -1.1302512 -1.1027745 -0.6535087 0.24197859 0.4833263 -0.052092172 0.94240916
00000000: 52d5 2bbf d8ef bc3c 09e0 febf 25cb c83e
00000010: e010 7d3f b101 adbf 6941 f5be ed35 b23f
00000020: ac6f 333f adc1 393f ab74 313f 587a 793f
00000030: b8d7 2ebf 09d5 a6bf 2e82 d03f 8c47 3a3f
00000040: a80f 7c3f 4331 313f b4cc 10bf f6b6 18c0
00000050: fbd7 1ebf 330f 4740 ad84 823f f9b8 63be
00000060: 3c93 223e 604d b0be 7095 d13e 2459 803d
00000070: e86b 79bf 4b4a 1740 9bc3 973d 730e 03bf
00000080: b0a9 8c3f 7eca db3f 20a4 7c3f c79a bd3e
00000090: 62d0 623f 3f84 c53f 7c0a c2bf 2df0 2e3f
000000a0: be3b f0be 6df3 c23e d0cd 21bd 0616 a0bf
000000b0: 05dd 81bd 59e6 a33f 89f7 89bf d74d 0ebf
000000c0: c18e a7bf fb11 ba3f e2ea 513d 501f 6d3f
000000d0: 285d 703d a576 6e3d 4f76 95bf 72ea abbe
000000e0: ef10 c6be 1053 75bf 82e1 9b3d c9ce ad3f
000000f0: 334a 5ebd bc23 b53e 15cb d53e e20f cfbf
00000100: 526d a0be 9125 763f 1547 0140 5483 82bf
00000110: e07e 513f 120f 65be 874d d4bf 16e7 70bf
00000120: 11e4 d6be 2a8d f8bd 5581 6f3f 94b0 a2bf
00000130: eda0 6fbf 87bb d8bf bf41 2dc0 a4f9 8b3f
00000140: 779b afbf d23a 81be a217 d8bf 9fe2 c1bd
00000150: abda 27bf e105 163d 421e 873f 9426 32bf
00000160: 6d07 d03f cdf5 26bf 1634 093e 1f41 e03f
00000170: 0989 383f 54b7 d4bf 5c7d d3bf 4c8f b6be
00000180: 01e9 be3f 687b 803f 542f 8cbf c456 d33e
00000190: 855a 11c0 28b4 8bbe 1aad 013f 0edb dcbe
000001a0: 362c e23e 5c09 6dbf 5e4b 6d3f b428 1a3f
000001b0: a8c2 e13f 662c f4bd 02be 613f 9747 e73d
000001c0: 4d63 423e 56ad ad3f e91a 47bf 9e5d a0bf
000001d0: c717 81bf 7277 92be 3fd7 9d3e 7de0 113f
000001e0: 675c 413e 12ac 90bf b727 8dbf 594c 27bf
000001f0: 3cc9 773e 8b76 f73e 9a5e 55bd ba41 713f

network_body._body_endoder.seq_layers.0.bias f4 [128]
0.0 0.0 0.0 0.0 0.0 0.0 0.0 0.0
0.0 0.0 0.0 0.0 0.0 0.0 0.0 0.0
0.0 0.0 0.0 0.0 0.0 0.0 0.0 0.0
0.0 0.0 0.0 0.0 0.0 0.0 0.0 0.0
0.0 0.0 0.0 0.0 0.0 0.0 0.0 0.0
0.0 0.0 0.0 0.0 0.0 0.0 0.0 0.0
0.0 0.0 0.0 0.0 0.0 0.0 0.0 0.0
0.0 0.0 0.0 0.0 0.0 0.0 0.0 0.0
0.0 0.0 0.0 0.0 0.0 0.0 0.0 0.0
0.0 0.0 0.0 0.0 0.0 0.0 0.0 0.0
0.0 0.0 0.0 0.0 0.0 0.0 0.0 0.0
0.0 0.0 0.0 0.0 0.0 0.0 0.0 0.0
0.0 0.0 0.0 0.0 0.0 0.0 0.0 0.0
0.0 0.0 0.0 0.0 0.0 0.0 0.0 0.0
0.0 0.0 0.0 0.0 0.0 0.0 0.0 0.0
0.0 0.0 0.0 0.0 0.0 0.0 0.0 0.0
00000000: 0000 0000 0000 0000 0000 0000 0000 0000
00000010: 0000 0000 0000 0000 0000 0000 0000 0000
00000020: 0000 0000 0000 0000 0000 0000 0000 0000
00000030: 0000 0000 0000 0000 0000 0000 0000 0000
00000040: 0000 0000 0000 0000 0000 0000 0000 0000
00000050: 0000 0000 0000 0000 0000 0000 0000 0000
00000060: 0000 0000 0000 0000 0000 0000 0000 0000
00000070: 0000 0000 0000 0000 0000 0000 0000 0000
00000080: 0000 0000 0000 0000 0000 0000 0000 0000
00000090: 0000 0000 0000 0000 0000 0000 0000 0000
000000a0: 0000 0000 0000 0000 0000 0000 0000 0000
000000b0: 0000 0000 0000 0000 0000 0000 0000 0000
000000c0: 0000 0000 0000 0000 0000 0000 0000 0000
000000d0: 0000 0000 0000 0000 0000 0000 0000 0000
000000e0: 0000 0000 0000 0000 0000 0000 0000 0000
000000f0: 0000 0000 0000 0000 0000 0000 0000 0000
00000100: 0000 0000 0000 0000 0000 0000 0000 0000
00000110: 0000 0000 0000 0000 0000 0000 0000 0000
00000120: 0000 0000 0000 0000 0000 0000 0000 0000
00000130: 0000 0000 0000 0000 0000 0000 0000 0000
00000140: 0000 0000 0000 0000 0000 0000 0000 0000
00000150: 0000 0000 0000 0000 0000 0000 0000 0000
00000160: 0000 0000 0000 0000 0000 0000 0000 0000
00000170: 0000 0000 0000 0000 0000 0000 0000 0000
00000180: 0000 0000 0000 0000 0000 0000 0000 0000
00000190: 0000 0000 0000 0000 0000 0000 0000 0000
000001a0: 0000 0000 0000 0000 0000 0000 0000 0000
000001b0: 0000 0000 0000 0000 0000 0000 0000 0000
000001c0: 0000 0000 0000 0000 0000 0000 0000 0000
000001d0: 0000 0000 0000 0000 0000 0000 0000 0000
000001e0: 0000 0000 0000 0000 0000 0000 0000 0000
000001f0: 0000 0000 0000 0000 0000 0000 0000 0000

network_body._body_endoder.seq_layers.2.weight f4 [128, 128]
-0.075694606 -0.061746564 0.21300721 -0.07222137 0.0034735245 -0.22711417 -0.07600836 0.21060574
-0.06936549 0.008908541 -0.07392739 -0.09922856 0.114849865 0.04427144 0.10371491 0.12335734
-0.05501083 0.063762166 -0.061323337 0.07581225 -0.15563898 0.1997786 0.032839 0.11028555
-0.04352347 -0.06308738 -0.019839957 0.011209221 0.2303312 -0.0642173 -0.03040846 -0.002402967
0.065766096 0.06718928 -0.031020928 -0.03949135 -0.007589164 -0.06753653 0.05381172 0.07828823
-0.04763609 -0.057672683 -0.006219627 -0.09484255 0.03338727 -0.08636822 0.09410505 0.03834508
0.011955086 0.16793899 0.027163427 -0.04550289 -0.01704458 0.06172275 0.09073641 -0.007897505
0.04311231 -0.096146055 0.122675784 0.13152981 0.11732273 0.04193206 -0.035690494 -0.063861944
0.054107577 -0.09536646 -0.046690416 0.13259272 0.09690314 -0.032284953 -0.18205896 0.11053067
-0.10175016 -0.08119797 0.08139936 -0.06375152 -0.19895522 -0.017357122 0.109223545 -0.14503522
-0.003886156 0.08830448 0.09969073 -0.28230923 -0.13066134 -0.06469007 0.0011233618 0.115068525
-0.06499196 -0.017018642 -0.03437503 -0.16209053 -0.12239217 -0.09257224 0.07332927 0.05947528
-0.11338709 -0.14891778 0.04909809 -0.043542024 -0.17383666 -0.056971833 -0.039639022 -0.010914023
-0.15114576 0.08115915 -0.033488896 0.037726138 0.009413731 0.060887195 -0.16536479 0.1479143
-0.09019128 -0.03743001 -0.07098128 0.03886049 -0.11003829 0.16858532 0.0012509249 -0.11695094
-0.025058324 0.044047527 0.094730414 -0.072938725 0.02789139 -0.08327416 0.011217797 0.051320694
0.008773365 -0.012818249 -0.11062245 -0.12167477 -0.0033729766 -0.08809049 -0.10361455 -0.102605015
-0.010691022 0.03547301 0.0058099595 -0.020989116 0.11048716 -0.20534806 -0.060511682 -0.089214675
0.08939704 -0.13241078 0.06375055 0.09041134 0.07212685 0.06600297 -0.0036176678 0.056445
-0.051394932 0.055540048 -0.15725312 -0.052458555 -0.03993924 0.013531998 -0.006481465 0.08208289
0.027713826 -0.16822922 -0.004966003 -0.103840634 0.018987287 0.030174322 0.14933571 0.06329421
-0.0054363906 -0.068174236 0.044226274 0.1348541 0.06284459 -0.033898965 -0.076497406 0.015931522
0.12971254 0.017422289 -0.028912501 -0.06947585 -0.027877888 -0.027892014 -0.035352804 0.11228451
0.009252777 -0.11483287 0.12207254 0.13639295 0.037054088 -0.16959679 0.08938584 0.03759234
0.03424407 -0.12817182 -0.013372583 0.06691056 -0.07669361 -0.007837919 0.031340502 0.022455372
0.099156626 0.10732899 0.09091839 -0.07360064 -0.0065041515 -0.052654684 -0.13096537 -0.010563285
0.119142614 -0.03327994 0.04438146 -0.0767311 0.082762405 -0.029764075 0.15747243 0.06598105
0.2142911 -0.006687775 0.01838193 -0.07380309 0.043167274 0.04710134 -0.097943395 0.23203513
0.11924622 0.06694579 0.041405655 0.041151628 0.03664732 -0.06398843 -0.04359457 0.02429321
0.003704932 0.060774744 0.026822673 0.09054736 -0.12766676 0.024196004 -0.15258093 -0.028772803
-0.073667705 -0.10059838 0.0100916 -0.2106725 0.13119291 -0.23224616 0.09341849 0.08264444
0.00715096 -0.034221243 0.052747585 -0.06128215 -0.19021094 0.01392475 0.01299546 0.0393529
00000000: c605 9bbd f7e9 7cbd 901e 5a3e cce8 93bd
00000010: 12a4 633b 9e90 68be 45aa 9bbd 08a9 573e
00000020: 7e0f 8ebd 21f5 113c 3e67 97bd 5838 cbbd
00000030: 6836 eb3d f855 353d 7c68 d43d c6a2 fc3d
00000040: 0953 61bd bd95 823d 2e2e 7bbd 7443 9b3d
00000050: d35f 1fbe c392 4c3e 3082 063d 64dd e13d
00000060: ab45 32bd f533 81bd 6887 a2bc e1a6 373c
00000070: f1db 6b3e 5c84 83bd 2a1b f9bc 197b 1dbb
00000080: 60b0 863d 899a 893d 9a1f febc afc1 21bd
00000090: 86ae f8bb 9850 8abd ae69 5c3d 9455 a03d
000000a0: 101e 43bd 313a 6cbd 03ce cbbb d03c c2bd
000000b0: 17c1 083d d2e1 b0bd 26ba c03d bb0f 1d3d
000000c0: 44df 433c 33f8 2b3e d685 de3c 3d61 3abd
000000d0: 13a1 8bbc ffd0 7c3d 03d4 b93d 8964 01bc
000000e0: 8996 303d 39e8 c4bd 713d fb3d c0af 063e
000000f0: e646 f03d f4c0 2b3d 3230 12bd 0dca 82bd
00000100: e89f 5d3d 7e4f c3bd 733e 3fbd 63c6 073e
00000110: 2775 c63d 3a3d 04bd aa6d 3abe e75d e23d
00000120: 6362 d0bd 1f4b a6bd b5b4 a63d 2890 82bd
00000130: ebba 4bbe 8630 8ebc 98b0 df3d 1d84 14be
00000140: e1ae 7ebb fbd8 b43d a72a cc3d d68a 90be
00000150: 16cc 05be 3a7c 84bd c43d 933a 0ca9 eb3d
00000160: 811a 85bd ae6a 8bbc d5cc 0cbd 0ffb 25be
00000170: bfa8 fabd 8496 bdbd a82d 963d 5a9c 733d
00000180: 7e37 e8bd e77d 18be 141b 493d 1f59 32bd
00000190: 3d02 32be 4c5b 69bd 875c 22bd bbd0 32bc
000001a0: f4c5 1abe c536 a63d a72b 09bd b986 1a3d
000001b0: 0d3c 1a3c da64 793d 6355 29be d976 173e
000001c0: 35b6 b8bd 3650 19bd a25e 91bd 2d2c 1f3d
000001d0: c15b e1bd a1a1 2c3e 13f6 a33a f983 efbd
000001e0: 1d47 cdbc 2e6b 343d 0502 c23d e660 95bd
000001f0: 7c7c e43c a58b aabd daca 373c a635 523d
00000200: 29be 0f3c a203 52bc 068e e2bd 9f30 f9bd
00000210: 280d 5dbb c968 b4bd dd33 d4bd 9422 d2bd
00000220: 6529 2fbc 264c 113d 7961 be3b 5ef1 abbc
00000230: 1847 e23d c346 52be 19db 77bd 2fb6 b6bd
00000240: cc15 b73d b196 07be a68f 823d 9529 b93d
00000250: 3eb7 933d 912c 873d 6516 6dbb df32 673d
00000260: 7e83 52bd f67d 633d f606 21be c8de 56bd
00000270: 5497 23bd 50b5 5d3c 7862 d4bb 131b a83d
00000280: 1b08 e33c 4844 2cbe dab9 a2bb 66aa d4bd
00000290: 3a8b 9b3c 2430 f73c 76eb 183e 65a0 813d
000002a0: c023 b2bb ef9e 8bbd 9c26 353d 3117 0a3e
000002b0: aab4 803d a4d9 0abd acaa 9cbd d382 823c
000002c0: 5dd3 043e 30b9 8e3c e9d9 ecbc 5b49 8ebd
000002d0: 2b60 e4bc cb7d e4bc 1ace 10bd 6cf5 e53d
000002e0: f698 173c 7f2d ebbd 2b01 fa3d 98aa 0b3e
000002f0: 07c6 173d c8aa 2dbe ec0f b73d 6dfa 193d
00000300: 8343 0c3d 793f 03be ae18 5bbc 6708 893d
00000310: 8a11 9dbd 9d6a 00bc e65e 003d 54f4 b73c
00000320: a112 cb3d 4dcf db3d 6c33 ba3d efbb 96bd
00000330: c720 d5bb 70ac 57bd c91b 06be a111 2dbc
00000340: 0b01 f43d 8c50 08bd 55c9 353d 3225 9dbd
00000350: 567f a93d cad3 f3bc 7440 213e 1321 873d
00000360: 206f 5b3e 1f25 dbbb b495 963c 1326 97bd
00000370: 2bd0 303d 56ed 403d 8c96 c8bd 9e9a 6d3e
00000380: 5d37 f43d e01a 893d fa98 293d 9c8e 283d
00000390: 801b 163d 5e0c 83bd 3890 32bd 8e02 c73c
000003a0: 72ce 723b f0ee 783d 39bb db3c e570 b93d
000003b0: 13bb 02be b336 c63c 2d3e 1cbe f1b4 ebbc
000003c0: 18df 96bd 8606 cebd 3d57 253c 88ba 57be
000003d0: 6f57 063e f0d1 6dbe 3152 bf3d 7d41 a93d
000003e0: 9a52 ea3b 932b 0cbd da0d 583d fe02 7bbd
000003f0: a8c6 42be a224 643c e9ea 543c 8230 213d

network_body._body_endoder.seq_layers.2.bias f4 [128]
0.0 0.0 0.0 0.0 0.0 0.0 0.0 0.0
0.0 0.0 0.0 0.0 0.0 0.0 0.0 0.0
0.0 0.0 0.0 0.0 0.0 0.0 0.0 0.0
0.0 0.0 0.0 0.0 0.0 0.0 0.0 0.0
0.0 0.0 0.0 0.0 0.0 0.0 0.0 0.0
0.0 0.0 0.0 0.0 0.0 0.0 0.0 0.0
0.0 0.0 0.0 0.0 0.0 0.0 0.0 0.0
0.0 0.0 0.0 0.0 0.0 0.0 0.0 0.0
0.0 0.0 0.0 0.0 0.0 0.0 0.0 0.0
0.0 0.0 0.0 0.0 0.0 0.0 0.0 0.0
0.0 0.0 0.0 0.0 0.0 0.0 0.0 0.0
0.0 0.0 0.0 0.0 0.0 0.0 0.0 0.0
0.0 0.0 0.0 0.0 0.0 0.0 0.0 0.0
0.0 0.0 0.0 0.0 0.0 0.0 0.0 0.0
0.0 0.0 0.0 0.0 0.0 0.0 0.0 0.0
0.0 0.0 0.0 0.0 0.0 0.0 0.0 0.0
00000000: 0000 0000 0000 0000 0000 0000 0000 0000
00000010: 0000 0000 0000 0000 0000 0000 0000 0000
00000020: 0000 0000 0000 0000 0000 0000 0000 0000
00000030: 0000 0000 0000 0000 0000 0000 0000 0000
00000040: 0000 0000 0000 0000 0000 0000 0000 0000
00000050: 0000 0000 0000 0000 0000 0000 0000 0000
00000060: 0000 0000 0000 0000 0000 0000 0000 0000
00000070: 0000 0000 0000 0000 0000 0000 0000 0000
00000080: 0000 0000 0000 0000 0000 0000 0000 0000
00000090: 0000 0000 0000 0000 0000 0000 0000 0000
000000a0: 0000 0000 0000 0000 0000 0000 0000 0000
000000b0: 0000 0000 0000 0000 0000 0000 0000 0000
000000c0: 0000 0000 0000 0000 0000 0000 0000 0000
000000d0: 0000 0000 0000 0000 0000 0000 0000 0000
000000e0: 0000 0000 0000 0000 0000 0000 0000 0000
000000f0: 0000 0000 0000 0000 0000 0000 0000 0000
00000100: 0000 0000 0000 0000 0000 0000 0000 0000
00000110: 0000 0000 0000 0000 0000 0000 0000 0000
00000120: 0000 0000 0000 0000 0000 0000 0000 0000
00000130: 0000 0000 0000 0000 0000 0000 0000 0000
00000140: 0000 0000 0000 0000 0000 0000 0000 0000
00000150: 0000 0000 0000 0000 0000 0000 0000 0000
00000160: 0000 0000 0000 0000 0000 0000 0000 0000
00000170: 0000 0000 0000 0000 0000 0000 0000 0000
00000180: 0000 0000 0000 0000 0000 0000 0000 0000
00000190: 0000 0000 0000 0000 0000 0000 0000 0000
000001a0: 0000 0000 0000 0000 0000 0000 0000 0000
000001b0: 0000 0000 0000 0000 0000 0000 0000 0000
000001c0: 0000 0000 0000 0000 0000 0000 0000 0000
000001d0: 0000 0000 0000 0000 0000 0000 0000 0000
000001e0: 0000 0000 0000 0000 0000 0000 0000 0000
000001f0: 0000 0000 0000 0000 0000 0000 0000 0000

action_model._continuous_distribution.log_sigma f4 [1, 4]
0.0 0.0 0.0 0.0
00000000: 0000 0000 0000 0000 0000 0000 0000 0000

action_model._continuous_distribution.mu.weight f4 [4, 128]
-0.005412147 -0.019419497 0.03791068 -0.026675794 0.0022170928 0.025448814 -0.025108218 0.01771603
0.022177352 -0.019718189 0.016557632 -7.455782e-05 0.012040217 0.008230198 0.009642443 0.011070925
0.022777112 0.033733003 -0.033302583 -0.011521301 0.040214214 -0.020781467 -0.025342325 0.0007322146
0.0079548415 0.011018551 -0.023343539 -0.021114849 0.009412306 -0.028459737 0.005807555 -0.006035547
-0.0027538578 0.0044031525 -0.010146241 0.00053615624 0.029512668 -0.02004976 0.03410542 0.045319557
-0.032507706 -0.0061042416 -0.0042336243 0.0053092544 -0.0016914979 -0.0062594526 0.018191667 0.005403829
-0.046059404 0.012743629 -0.019590186 0.0021479283 0.023332417 0.015095681 -0.022345025 0.010354268
0.0004128175 0.009094088 -0.006814239 -0.034803253 0.006933754 0.028174415 -0.009088977 -0.018548824
0.019643757 -0.00590314 -0.01384523 0.008900149 -0.005152987 -0.010061534 0.008948363 0.04014352
-0.01417163 -0.022966897 0.013671338 0.008655214 0.0048923395 -0.00965261 -0.024626976 -0.007746165
-0.0027252033 -0.00935024 -0.013184498 -0.034050297 -0.0011792224 0.001322213 -0.0035410945 0.01954295
-0.0036259515 0.0081256805 -0.0018028883 -0.017704023 -0.015651844 0.019368956 -0.020766161 0.0026885679
-0.0188312 0.01178272 -0.01918141 0.042664293 0.020227132 0.011127744 -0.0005826307 0.0031085142
-0.014913662 -0.0069123963 0.004763077 0.021836517 0.009083333 0.0029921215 -0.01368119 -0.0006775693
-0.0146461725 0.009993906 0.01593233 0.008482452 0.0034443655 0.019678349 -0.0038280578 0.008308864
-0.0258793 -0.032057896 -0.01323926 0.016254546 -0.0034507064 -0.012770827 -0.022200307 -0.014687009
-0.023080505 -0.023902047 -0.0052861543 0.01571894 0.011957138 0.00122235 0.027436694 0.0300263
0.0061238413 -0.012653968 -0.0042779385 -0.0068375166 0.036512073 0.0059045684 -0.0005513153 0.0054764184
-0.008377751 0.034332883 0.007741929 -0.057459574 0.012063653 0.01430617 -0.041902803 0.02961281
0.06978383 0.014007713 0.016990628 0.017156744 0.01983889 0.03311612 0.015440299 0.007022284
0.0018893353 0.0041914447 -0.0073177405 -0.019172044 -0.0054209 -0.01920939 0.008062624 -0.033998117
-0.016360557 -0.022310017 0.015575968 0.01677252 -0.015311226 0.03427002 0.005644124 -7.78744e-05
0.02760893 0.040302962 0.023523403 -0.00076864194 0.034084927 0.002200925 0.012363687 0.015376853
0.021716176 0.013133952 0.0040955856 0.027487362 -0.019362664 -0.017563468 -0.05102556 0.016832335
-0.03727141 0.01819576 0.021993585 0.0019151006 0.026376713 -0.020470753 0.0053245914 -0.020674553
-0.010563039 0.007156045 -0.007666827 -0.0010697283 -0.026327139 0.009791774 -0.008892339 -0.006126795
0.03224176 0.033051383 -0.01734369 0.0048246644 -0.008103806 -0.018775096 0.0017743809 -0.0007134575
0.006874761 0.0044440883 -0.013417007 -0.0010512309 -0.03180258 -0.019267716 0.0010772924 0.0038203185
-0.021417134 -0.0021792217 0.02323496 0.0033656962 -0.021054598 -0.013479799 0.011174841 0.008334798
-0.01667527 -0.008211873 2.162856e-05 -0.022990614 -0.0043619806 -0.0449485 -0.0057641286 -0.0063678636
-0.031466704 -0.019063948 -0.005965735 -0.022425683 0.0005881397 0.00024798056 -0.022650152 0.015687788
-0.043893266 0.010425876 -0.034487516 -0.0018668866 -0.037785362 -0.0084401 -0.004900214 -0.0073330007
00000000: 6158 b1bb a315 9fbc 3b48 1b3d 3287 dabc
00000010: a54c 113b 087a d03c c0af cdbc 3521 913c
00000020: 47ad b53c 0a88 a1bc dfa3 873c ed5b 9cb8
00000030: 5544 453c f4d7 063c 56fb 1d3c d362 353c
00000040: 1197 ba3c 9e2b 0a3d 4a68 08bd d7c3 3cbc
00000050: a9b7 243d e53d aabc b59a cfbc 17f2 3f3a
00000060: 0655 023c 2787 343c f33a bfbc 0cf9 acbc
00000070: 1336 1a3c 6524 e9bc 4d4d be3b d6c5 c5bb
00000080: 117a 34bb 5248 903b 6b3c 26bc d68c 0c3a
00000090: 8dc4 f13c 653f a4bc 20b2 0b3d 00a1 393d
000000a0: cd26 05bd 1706 c8bb 37ba 8abb 41f9 ad3b
000000b0: 40b5 ddba 181c cdbb b106 953c 9a12 b13b
000000c0: c9a8 3cbd a7ca 503c 997b a0bc 42c4 0c3b
000000d0: a023 bf3c e053 773c ea0c b7bc f3a4 293c
000000e0: 6d6f d839 5fff 143c fb49 dfbb db8d 0ebd
000000f0: 8b34 e33b 08ce e63c efe9 14bc b4f3 97bc
00000100: f2eb a03c 216f c1bb 1bd7 62bc eed1 113c
00000110: 63da a8bb 22d9 24bc 289c 123c 886d 243d
00000120: 2030 68bc 1325 bcbc bffd 5f3c 99ce 0d3c
00000130: eb4f a03b fb25 1ebc 83be c9bc 8bd3 fdbb
00000140: 5399 32bb c031 19bc cb03 58bc 5378 0bbd
00000150: 2390 9aba 1b4e ad3a b511 68bb 8918 a03c
00000160: 5fa1 6dbb 9321 053c e54e ecba 0708 91bc
00000170: 4c38 80bc a5ab 9e3c cc1d aabc af32 303b
00000180: e443 9abc 4f0c 413c 5522 9dbc c1c0 2e3d
00000190: 5fb3 a53c 2451 363c afbb 18ba 37b8 4b3b
000001a0: 6f58 74bc 6281 e2bb 9613 9c3b 7fe2 b23c
000001b0: 43d2 143c 7817 443b 1227 60bc e89e 31ba
000001c0: 80f6 6fbc 7bbd 233c 8584 823c fbf9 0a3c
000001d0: ddba 613b 7d34 a13c 27e0 7abb e721 083c
000001e0: d300 d4bc 244f 03bd 7be9 58bc 4128 853c
000001f0: 3f25 62bb bb3c 51bc 6bdd b5bc c8a1 70bc
00000200: 5413 bdbc 3ace c3bc 7a37 adbb 02c5 803c
00000210: dfe7 433c 4337 a03a ebc2 e03c b7f9 f53c
00000220: 81aa c83b 9752 4fbc f32d 8cbb 3f0d e0bb
00000230: af8d 153d 1c7b c13b 2586 10ba 8773 b33b
00000240: d642 09bc a3a0 0c3d 02b0 fd3b bb5a 6bbd
00000250: a1a6 453c 6d64 6a3c 46a2 2bbd 9096 f23c
00000260: d3ea 8e3d 9b80 653c ee2f 8b3c 4d8c 8c3c
00000270: 2b85 a23c c5a4 073d 4ff9 7c3c 301b e63b
00000280: 93a3 f73a 6358 893b a8c9 efbb b10e 9dbc
00000290: cea1 b1bb 035d 9dbc 1919 043c 9c41 0bbd
000002a0: 9306 86bc 7fc3 b6bc 5832 7f3c 8666 893c
000002b0: f0db 7abc b85e 0c3d 58f2 b83b 8050 a3b8
000002c0: 1f2c e23c b814 253d 27b4 c03c b07e 49ba
000002d0: a39c 0b3d 653d 103b 1091 4a3c 32ef 7b3c
000002e0: 1fe6 b13c ca2f 573c 4334 863b 2d2d e13c
000002f0: 739e 9ebc 43e1 8fbc 2d00 51bd f7e3 893c
00000300: e8a9 18bd 460f 953c e42b b43c 1d04 fb3a
00000310: fa13 d83c 48b2 a7bc e979 ae3b ae5d a9bc
00000320: 9910 2dbc 427d ea3b 023a fbbb 2036 8cba
00000330: 03ac d7bc ad6d 203c 2cb1 11bc 48c3 c8bb
00000340: f00f 043d e360 073d 5b14 8ebc 3818 9e3b
00000350: d3c5 04bc 3bce 99bc 5892 e83a 5307 3bba
00000360: ad45 e13b b79f 913b 02d3 5bbc 75c9 89ba
00000370: 6c43 02bd 54d7 9dbc ef33 8d3a 4f5e 7a3b
00000380: fc72 afbc 46d1 0ebb 3e57 be3c 0393 5c3b
00000390: b17a acbc 60da 5cbc ae16 373c ad8e 083c
000003a0: 939a 88bc 178b 06bc fb6e b537 d056 bcbc
000003b0: f2ee 8ebb eb1b 38bd 04e1 bcbb 83a9 d0bb
000003c0: 3be3 00bd ff2b 9cbc 367c c3bb 11b6 b7bc
000003d0: 632d 1a3a 6303 8239 d08c b9bc ad83 803c
000003e0: 6dc9 33bd 4bd1 2a3c c842 0dbd 52b2 f4ba
000003f0: d3c4 1abd 5848 0abc f991 a0bb ab49 f0bb

action_model._continuous_distribution.mu.bias f4 [4]
0.0 0.0 0.0 0.0
00000000: 0000 0000 0000 0000 0000 0000 0000 0000

action_model._discrete_distribution.branches.0.weight f4 [2, 128]
0.0046390872 -0.0034614298 0.014934786 -0.028935099 -0.0075868503 0.0005883574 0.0122019285 -0.01695226
0.0063983956 -0.011220225 -0.012763989 0.0111894095 0.007550847 0.009785698 -0.0015834233 -0.004357097
-0.001969925 0.005063118 0.0030157275 0.004443039 0.0032386594 -0.008378118 -0.007560572 -0.0024938302
-0.0062799873 0.0008802536 -0.004938884 -0.012614128 0.00037038652 -0.0030015165 0.00049518386 -0.011966564
0.0007906167 0.0073885405 0.0144829815 -0.0018014204 -0.0013989785 -0.00071182306 -0.003595988 -0.013722025
0.005246905 0.011694706 0.0016339303 -0.017042197 -0.012850927 -0.009421542 -0.009883038 0.005017311
-0.003236503 0.003996068 -0.0041642017 -0.0017026206 0.010851517 -0.00038726375 -0.0034777839 -0.005333373
3.8790655e-05 0.0006144074 0.0072589964 -0.0052121617 0.00077890174 0.01586545 0.018791929 -0.0028971764
0.0073869186 -0.0029252837 -0.0019778812 0.0082402155 -0.009457158 -0.0105983885 -0.00033617808 -0.009743902
0.014592235 -0.008464858 -0.0051418846 -0.00022346717 0.0012748385 -0.0028212664 -0.017829863 -0.0040864623
0.0055267927 0.023232391 0.0120326 -0.004459594 0.0040051537 -0.004297854 0.0020745816 -0.01753005
0.0016370266 -0.0077513293 0.00540059 -0.0003302217 0.008307645 -0.005684772 0.009642708 -0.005018418
0.008675558 -0.0016732533 -0.0033425328 0.006898275 -0.010686619 0.0046086935 0.009850848 -0.0028441225
-0.008849424 -0.010078489 0.010475479 0.0009869774 0.0076204776 0.013454928 0.009395018 0.013031845
0.009748212 0.021986958 -0.0043706484 -0.0054991497 0.0026522249 -0.0061782883 -0.0009049554 -0.0004222767
-0.01760886 -0.010006971 -0.0050703343 -0.0034320902 -0.004107691 -0.008823138 -0.003862032 0.004662081
0.009178979 -0.0057663335 0.01644283 0.0011003149 0.0142264245 -0.0010978036 -0.0025526232 0.00970026
-0.013240284 0.014280257 -0.004611 -0.005935867 -0.0030419116 0.0027588706 -0.0108925365 0.008530888
3.627633e-05 0.0071753943 -0.0073948875 -0.0074470164 -0.003905588 -0.013641179 0.0062134927 -0.00042546433
-0.013985707 0.00047052465 0.0004305667 0.008403412 0.0049303332 0.003240633 -0.0029254388 -0.0056578377
0.00017439625 -0.0031675794 -0.0038543318 0.01360161 -0.0103930235 -0.00500266 -0.013501421 0.009682958
0.0018563144 -0.014581503 0.009931419 0.0011143008 0.0102656325 -0.0034532994 -0.0016578374 0.0009831905
0.0005284877 0.0049514244 0.0017778019 -0.0075882673 0.012122507 -0.005090733 -0.0044566053 0.011304217
-0.012373459 -0.011506263 -0.014046994 0.0059574116 -0.0010933898 0.008379714 -0.0025372151 0.0015865027
-0.005454015 -0.008238033 0.009413133 -0.009475273 0.007735883 -0.004620762 0.010778167 -0.0021281948
-0.009511835 -0.01383388 -0.006953685 0.0037270454 0.0011097676 -0.019928759 0.0004898703 -0.01058643
-0.0037326005 -0.003473996 0.007969207 0.007104953 0.010530724 -0.00015644451 -0.004949041 -0.010600916
-0.004336094 0.008140723 0.004239624 0.007539904 -0.007646811 0.00880155 0.012030336 0.005494636
-0.0014936198 -0.0042566713 0.003341663 -4.2206946e-05 -0.00036200107 0.019264678 -0.0035444729 0.0066311434
-0.006409018 -0.0010877774 0.000819458 0.0011022981 -0.004388576 -0.0004127585 -0.0050030425 0.002644016
0.003073175 -0.005429488 -0.01319313 0.0075959624 0.013862791 -0.011605914 -0.0013780032 0.010461043
-0.0019849702 0.007848117 -0.0012685979 -1.7308954e-05 -0.0011661089 0.009781438 0.0058554807 0.021276366
00000000: 7c03 983b 28d9 62bb 08b1 743c 4d09 edbc
00000010: 1d9b f8bb ff3b 1a3a 99ea 473c 77df 8abc
00000020: a2a9 d13b 09d5 37bc 0d20 51bc c953 373c
00000030: 186d f73b 3154 203c df8a cfba fbc5 8ebb
00000040: db19 01bb 83e8 a53b 83a3 453b ea96 913b
00000050: b03f 543b 6044 09bc adbe f7bb 876f 23bb
00000060: 5ac8 cdbb d2c0 663a 5dd6 a1bb 7dab 4ebc
00000070: 7030 c239 17b5 44bb 3acf 013a 680f 44bc
00000080: 6341 4f3a 921b f23b 074a 6d3c a31d ecba
00000090: ee5d b7ba a399 3aba abaa 6bbb 58d2 60bc
000000a0: 3bee ab3b 279b 3f3c 9a29 d63a 149c 8bbc
000000b0: b28c 52bc d05c 1abc 77ec 21bc 4168 a43b
000000c0: 831b 54bb 73f1 823b db73 88bb 782a dfba
000000d0: 90ca 313c a909 cbb9 88eb 63bb 93c3 aebb
000000e0: 26b3 2238 2f10 213a e0dc ed3b c8ca aabb
000000f0: 362f 4c3a 43f8 813c 88f1 993c 8ede 3dbb
00000100: f70d f23b 1eb6 3fbb 579f 01bb f801 073c
00000110: 32f2 1abc dda4 2dbc 0f41 b0b9 e3a4 1fbc
00000120: 4514 6f3c 30b0 0abc 417d a8bb 8352 6ab9
00000130: 7b18 a73a ffe4 38bb ef0f 92bc bbe7 85bb
00000140: 191a b53b db51 be3c 6224 453c c921 92bb
00000150: aa3d 833b 03d5 8cbb b4f5 073b 2e9b 8fbc
00000160: 7f91 d63a ddfe fdbb 6ff7 b03b 9b21 adb9
00000170: ca1c 083c 5347 babb 73fc 1d3c 8b71 a4bb
00000180: ed23 0e3c 1051 dbba 650e 5bbb ed0a e23b
00000190: ee16 2fbc 8604 973b 7365 213c 7564 3abb
000001a0: 2dfd 10bc 3f20 25bc 58a1 2b3c 775d 813a
000001b0: 33b5 f93b 0f72 5c3c 90ed 193c 8583 553c
000001c0: f7b6 1f3c fe1d b43c a837 8fbb 3632 b4bb
000001d0: f3d0 2d3b 3d73 cabb 873a 6dba 0565 ddb9
000001e0: 7540 90bc 47f4 23bc 0c25 a6bb ebec 60bb
000001f0: cf99 86bb ec8e 10bc 251a 7dbb 5fc4 983b
00000200: 6e63 163c 83f3 bcbb 1db3 863c 7138 903a
00000210: f315 693c 2de4 8fba e949 27bb d7ed 1e3c
00000220: c7ed 58bc bdf7 693c df17 97bb a981 c2bb
00000230: cf5a 47bb 2bce 343b 9c76 32bc 23c5 0b3c
00000240: 6a27 1838 921f eb3b d050 f2bb 1a06 f4bb
00000250: e5f4 7fbb 407f 5fbc 8e9a cb3b db10 dfb9
00000260: 4f24 65bc c0b0 f639 afbd e139 77ae 093c
00000270: a28e a13b cd60 543b b8b8 3fbb 6265 b9bb
00000280: 23de 3639 2a97 4fbb f598 7cbb 4ad9 5e3c
00000290: 8047 2abc 5bed a3bb 1035 5dbc 45a5 1e3c
000002a0: 934f f33a 42e7 6ebc 64b7 223c bb0d 923a
000002b0: 2f31 283c c050 62bb cb4b d9ba 66de 803a
000002c0: 368a 0a3a 8f3f a23b 2205 e93a 00a7 f8bb
000002d0: 7b9d 463c 2ad0 a6bb b708 92bb 5335 393c
000002e0: 0cba 4abc c484 3cbc 5d25 66bc 6436 c33b
000002f0: 1350 8fba 114b 093c 6847 26bb 32f2 cf3a
00000300: 98b7 b2bb d1f8 06bc 8b39 1a3c 2d3e 1bbc
00000310: 4a7d fd3b c369 97bb e996 303c 2f79 0bbb
00000320: 87d7 1bbc 80a7 62bc bddb e3bb 7241 743b
00000330: 9f75 913a a341 a3bc a46a 003a b572 2dbc
00000340: a59e 74bb fbab 63bb 4791 023c aad0 e83b
00000350: 0f89 2c3c 410b 24b9 912b a2bb 77af 2dbc
00000360: cb15 8ebb ab60 053c 8bec 8a3b 4d11 f73b
00000370: 1a92 fabb 6034 103c e31a 453c 590c b43b
00000380: 90c5 c3ba 8c7b 8bbb cdff 5a3b 5d07 31b8
00000390: f6ca bdb9 f5d0 9d3c 634a 68bb 104a d93b
000003a0: bd02 d2bb c193 8eba e5d0 563a fd7a 903a
000003b0: 0bce 8fbb 8267 d8b9 90f0 a3bb 3a47 2d3b
000003c0: 5267 493b d9e9 b1bb ff27 58bc 8de7 f83b
000003d0: c220 633c bb26 3ebc 1d9e b4ba cb64 2b3c
000003e0: 4616 02bb 6395 003c 1547 a6ba b232 91b7
000003f0: 1fd8 98ba 5342 203c 55df bf3b c64b ae3c

action_model._discrete_distribution.branches.0.bias f4 [2]
0.0 0.0
00000000: 0000 0000 0000 0000

action_model._discrete_distribution.branches.1.weight f4 [2, 128]
-0.016475352 0.011000092 -0.006896624 0.017097501 0.017396407 0.0044584554 -0.007003367 0.016692162
0.0028235049 0.00635233 0.02068532 -0.00082149537 -0.0046219113 0.0033568186 0.0032808518 0.012721027
-0.016473753 -0.005216736 0.015419483 0.0026608168 -0.008468904 0.004311279 -0.016039513 -0.0077986503
0.014226538 -0.0014142975 0.015653526 -0.0035339638 -0.0075070667 0.005493994 0.030551573 0.004114867
-0.007098414 -0.008686191 -0.016055213 -0.0087839095 -0.00796103 -0.002525062 0.0056296755 0.006044354
0.013897016 -0.01226735 -0.016529545 0.013865076 0.006491311 0.006529346 0.008036724 -0.002925226
-0.0071994187 -0.0007604374 -0.012138386 0.004795719 0.013786993 0.01619844 0.0043843254 0.006946947
-0.004487929 -0.003802291 0.0023853004 0.003528128 0.0011642808 0.0017182138 -0.008407908 -7.3171315e-05
0.0044145896 0.015137583 0.002246564 0.0053944434 -0.011036686 -0.008076719 -0.0005861234 -0.010011978
0.008070963 -0.008711051 0.0028040383 0.009022118 -0.0043220646 0.014371442 0.009045149 -0.012065395
-0.004462395 0.024913883 0.006326914 0.003430053 -0.0046141585 -0.0019101119 0.0012395822 -0.009556737
-0.009930534 0.0014071419 -0.003032002 -0.01170203 -0.0017794435 0.00042784485 9.555165e-05 -0.012982893
-0.010154007 -0.013886428 -0.010967338 -0.015651854 -0.003395717 -0.009158869 0.0076808087 -0.0019297462
-0.004988047 -0.0003790512 -0.001034449 0.008590682 0.008314787 0.010134587 0.0038903267 -0.006269132
0.002547012 0.0013537866 0.014941986 0.0039841435 -0.019205017 0.011614758 -0.0034569742 0.015087339
-0.0068957726 0.0025975376 0.008990585 -0.00019567848 -0.0064933486 -0.0017660272 0.00052026135 -0.009158914
-0.011384911 0.01624524 -0.0011239414 0.003979817 0.009670048 0.005312003 0.0023053926 0.016193185
0.011277086 0.00026371068 0.003410938 -0.0015728906 -0.0016760068 -0.0134412395 0.0135040255 -0.0051609455
-0.003033599 -0.0021111607 -0.0042657624 -0.011923681 0.00486651 -0.009429571 -0.012099215 -0.007537977
-0.014292312 -0.007882825 -0.0017075241 0.00045887133 0.008039871 -0.0009907141 -0.0053139376 0.008733525
0.005356404 -0.00018457537 -0.002266179 0.007462192 -0.010070603 0.0046570213 -0.008561048 0.0038521755
-0.00018243198 0.010460117 0.014153399 0.005318551 0.0070253657 0.017009595 -0.004522856 0.014947481
-4.2194733e-05 -0.010754726 0.01018429 -0.01941607 -0.007074617 -0.0061935754 -0.0058318763 0.0028757835
0.004656566 -0.0018752074 -0.013211873 -0.008412161 0.0012032769 0.021281116 0.004043909 0.0038479713
0.0022635476 0.0037449212 -0.006865322 -0.0036604386 0.00033569426 0.0040495084 -0.0010462162 0.0035606802
-0.0019939737 -0.004724219 -0.0016338004 -0.011340914 0.00807156 0.000986957 0.028785426 0.0004092875
-0.002303025 0.006175955 -0.00575553 -0.012755749 -0.0033262223 -0.002524034 0.0032372642 -0.001123576
-0.012043635 0.016819177 -0.0021879189 0.0072360993 0.01600138 0.006962376 0.0011178725 0.0071275565
0.022966562 -0.01387192 0.0053478777 -0.008609646 -0.0062002405 -0.012941082 -0.0027708372 0.010312858
-1.4070487e-05 -0.0024695208 0.005084647 0.0049291565 0.0009933445 0.02272374 0.00399303 -0.010883821
-0.004256943 0.0081655 0.0027737261 0.015430537 -0.0004075753 -0.004644063 0.012805146 0.0076759197
-0.0073888786 0.0005035167 -0.0010378993 0.009758366 -0.0036981106 0.004632114 -0.0032951494 -7.4823976e-05
00000000: 51f7 86bc bb39 343c 13fd e1bb 0f10 8c3c
00000010: e982 8e3c 3c18 923b 807c e5bb 00be 883c
00000020: 8d0a 393b 3527 d03b 4374 a93c 9f59 57ba
00000030: 6773 97bb 12fe 5b3b 8f03 573b db6b 503c
00000040: f7f3 86bc 27f1 aabb 00a2 7c3c 1961 2e3b
00000050: 28c1 0abc a145 8d3b 4c65 83bc d28b ffbb
00000060: 6d16 693c f35f b9ba d33b 803c 139a 67bb
00000070: d7fd f5bb f606 b43b 4b47 fa3c 02d6 863b
00000080: d099 e8bb 8750 0ebc 3986 83bc 63ea 0fbc
00000090: fb6e 02bc 837b 25bb 2479 b83b b70f c63b
000000a0: 4fb0 633c fffc 48bc f868 87bc 582a 633c
000000b0: 10b5 d43b 20f4 d53b 77ac 033c 26b5 3fbb
000000c0: 1ae9 ebbb 1758 47ba 15e0 46bc 6825 9d3b
000000d0: d7e2 613c 97b2 843c 63aa 8f3b 37a3 e33b
000000e0: 7a0f 93bb db2f 79bb b352 1c3b 2a38 673b
000000f0: c89a 983a b035 e13a 52c1 09bc 8d73 99b8
00000100: 43a8 903b a003 783c 173b 133b dfc3 b03b
00000110: 37d3 34bc 3754 04bc 13a6 19ba 4809 24bc
00000120: 133c 043c ccb8 0ebc f5c3 373b 81d1 133c
00000130: 1ba0 8dbb 3276 6b3c 1b32 143c efad 45bc
00000140: 4839 92bb 3318 cc3c 0052 cf3b bdca 603b
00000150: 5e32 97bb b85c faba 7a79 a23a dc93 1cbc
00000160: aeb3 22bc d96f b83a 8db4 46bb dfb9 3fbc
00000170: 373c e9ba 5d50 e039 e762 c838 33b6 54bc
00000180: fe5c 26bc e783 63bc 5ab0 33bc 5138 80bc
00000190: ad8a 5ebb 150f 16bc 4baf fb3b 8aef fcba
000001a0: c572 a3bb 64bb c6b9 5996 87ba efbf 0c3c
000001b0: bf3a 083c 8a0b 263c daf4 7e3b 4a6d cdbb
000001c0: c5eb 263b 8a71 b13a 3bcf 743c 6b8d 823b
000001d0: d753 9dbc d34b 3e3c 678e 62bb e330 773c
000001e0: eff5 e1bb 733b 2a3b 3f4d 133c 0b2f 4db9
000001f0: 28c6 d4bb 0a7a e7ba 2662 083a 450f 16bc
00000200: c787 3abc bd14 853c 3751 93ba 2069 823b
00000210: 1f6f 1e3c 5010 ae3b 1216 173b 92a7 843c
00000220: 87c3 383c a642 8a39 0b8a 5f3b 7329 ceba
00000230: 75ad dbba a538 5cbc fd3f 5d3c 261d a9bb
00000240: 58cf 46bb 665b 0abb cfc7 8bbb 8b5b 43bc
00000250: 3f77 9f3b 7d7e 1abc c93b 46bc 2201 f7bb
00000260: 4d2a 6abc f726 01bc 00cf dfba ab94 f039
00000270: aab9 033c d9da 81ba 8a20 aebb 0f17 0f3c
00000280: c684 af3b 938a 41b9 2d84 14bb 6785 f43b
00000290: 2cff 24bc ed99 983b a343 0cbc c874 7c3b
000002a0: 364b 3fb9 e960 2b3c a8e3 673c 3d47 ae3b
000002b0: 0a35 e63b b557 8b3c 7734 94bb 48e6 743c
000002c0: 40fa 30b8 9734 30bc 02dc 263c 730e 9fbc
000002d0: 30d2 e7bb 7af3 cabb 5319 bfbb a477 3c3b
000002e0: 1b96 983b 85c9 f5ba 9d76 58bc 29d3 09bc
000002f0: 46b7 9d3a bc55 ae3c c482 843b 3f2e 7c3b
00000300: 0758 143b 5a6d 753b 7ff6 e0bb f8e3 6fbb
00000310: 1f00 b039 bdb1 843b 3121 89ba 4d5a 693b
00000320: 54ad 02bb 9fcd 9abb 3f25 d6ba 3ecf 39bc
00000330: 943e 043c c85c 813a 6acf eb3c a395 d639
00000340: 59ee 16bb aa5f ca3b e398 bcbb 7dfd 50bc
00000350: c0fc 59bb 436a 25bb 4828 543b f444 93ba
00000360: ab52 45bc 5fc8 893c 3063 0fbb cd1c ed3b
00000370: 5315 833c a524 e43b 9485 923a 478e e93b
00000380: 5f24 bc3c 0d47 63bc 403d af3b 790f 0dbc
00000390: 632b cbbb d506 54bc ef96 35bb 43f7 283c
000003a0: 4810 6cb7 afd7 21bb 1c9d a63b c384 a13b
000003b0: 1c33 823a 2327 ba3c f7d7 823b 0e52 32bc
000003c0: d37d 8bbb 97c8 053c 67c7 353b 5dd0 7c3c
000003d0: d5af d5b9 392d 98bb adcc 513c 4886 fb3b
000003e0: 681e f2bb 6ffe 033a 1f0a 88ba 8ee1 1f3c
000003f0: 005c 72bb fdc8 973b 6ff3 57bb d1ea 9cb8

action_model._discrete_distribution.branches.1.bias f4 [2]
0.0 0.0
00000000: 0000 0000 0000 0000

action_model._discrete_distribution.branches.2.weight f4 [1, 128]
0.0031270452 0.0039811544 0.008901928 -0.011114449 0.002975973 0.0072907335 -0.008409272 -0.013217539
0.005590174 -0.0076743825 0.0019637372 -0.0089409305 0.0064387457 -0.0069478448 -0.0035848648 -0.009498513
0.003658408 0.00024059918 -0.008754876 -0.0047186674 0.022070063 0.00593936 0.02195042 0.0003801781
0.015322027 0.0002833436 -0.005578347 -0.011160242 0.015028931 -0.0013341218 -0.0019516709 -0.009693726
0.012267422 0.0040830686 -0.015804695 0.020420173 -0.005069706 -0.0015665768 0.012442795 -0.02009584
-0.0046553146 -0.0012112717 -0.0029730077 -0.005737034 0.011477559 -0.0082534505 -0.004485449 0.0011656728
-0.010491605 -0.008041724 0.006052283 -0.01271109 0.0071309763 -0.009084834 0.007902604 0.0010681282
-0.0040733335 -0.0036262234 0.0009959838 -0.0067389244 0.010625209 0.009008194 0.0038318322 -0.003271132
0.0012464003 0.006273651 -0.011394926 -0.010044946 -0.00081241626 0.011465346 -0.0014911689 0.005658762
0.007243776 -0.003028004 0.019098628 -0.0062593506 -0.006400363 -0.0035104814 0.01392325 0.020610997
-0.0068808557 -0.004718063 -0.003609803 -0.019996902 0.0074156574 -0.0034707852 0.00023049717 0.004639237
-0.0020161017 0.009548536 -0.002506347 -0.011037969 -0.0051618316 0.0066210465 0.00526585 0.00018633148
-0.0045412276 -0.01017095 -0.002523138 -0.016919546 -0.005161962 -0.0063667716 0.008619612 0.0026182376
0.016613118 -0.011712897 0.001818715 -0.015752302 -0.0018437704 0.017709019 0.0023775361 0.0010616385
0.012588543 -0.010016158 -0.012381763 -0.0043563056 0.01058204 0.007834939 -0.0056315134 -0.0055720014
0.0023356024 -0.016537962 -0.008140337 -0.0036877051 0.0008499037 -0.0011561929 -0.018023828 -0.009854735
00000000: 1def 4c3b 5874 823b 64d9 113c 6119 36bc
00000010: 8b08 433b 1be7 ee3b 0bc7 09bc 608e 58bc
00000020: c72d b73b 6379 fbbb 0bb2 003b fb7c 12bc
00000030: 1dfc d23b bfaa e3bb 0df0 6abb a79f 1bbc
00000040: e7c1 6f3b 5a49 7c39 9d70 0fbc 0d9f 9abb
00000050: 47cc b43c f69e c23b 5ed1 b33c a452 c739
00000060: 3d09 7b3c bc8d 9439 91ca b6bb 73d9 36bc
00000070: e83b 763c b3dd aeba 35cf ffba 6fd2 1ebc
00000080: 4cfd 483c 43cb 853b d978 81bc 3548 a73c
00000090: c71f a6bb 9855 cdba dddc 4b3c 08a0 a4bc
000000a0: 9c8b 98bb 89c3 9eba cbd6 42bb bbfd bbbb
000000b0: 5f0c 3c3c 7b39 07bc acfa 92bb 7dc9 983a
000000c0: fbe4 2bbc 6fc1 03bc 3b52 c63b 2d42 50bc
000000d0: f7aa e93b 8ed8 14bc ec79 013c 6f00 8c3a
000000e0: 9979 85bb efa5 6dbb ac8b 823a 32d2 dcbb
000000f0: 5b15 2e3c 1b97 133c 7a1f 7b3b 7d60 56bb
00000100: 415e a33a 3393 cd3b c9b1 3abc 8f93 24bc
00000110: 55f8 54ba 26d9 3b3c 5373 c3ba 236d b93b
00000120: 335d ed3b 7a71 46bb ba74 9c3c 3d1b cdbb
00000130: 23ba d1bb 1b10 66bb 581e 643c 65d8 a83c
00000140: cd78 e1bb fb99 9abb 7292 6cbb 8bd0 a3bc
00000150: 0bff f23b 1d76 63bb 9db1 7139 be04 983b
00000160: 9320 04bb 7671 1c3c 8641 24bb 99d8 34bc
00000170: 9524 a9bb 5df5 d83b 278d ac3b fa61 4339
00000180: 94ce 94bb 0ea4 26bc 3b5b 25bb dc9a 8abc
00000190: ad25 a9bb 5aa0 d0bb 4639 0d3c bd96 2b3b
000001a0: 3c18 883c 73e7 3fbc f361 ee3a f90a 81bc
000001b0: abaa f1ba 8112 913c 70d0 1b3b ad26 8b3a
000001c0: 2d40 4e3c d01a 24bc e1dc 4abc 57bf 8ebb
000001d0: 4b60 2d3c 1e5e 003c 8f88 b8bb 5695 b6bb
000001e0: e810 193b 9f7a 87bc 0c5f 05bc 6dad 71bb
000001f0: 12cc 5e3a 658b 97ba b5a6 93bc c175 21bc

action_model._discrete_distribution.branches.3.weight f4 [1, 128]
-0.007991924 -0.0025737856 -0.011158448 -0.009021957 0.0045712995 0.0025556802 -0.0021470662 -0.020429539
0.0042169103 0.0027116807 0.014595456 -0.0031690213 0.006667121 0.011982673 0.008555885 -0.00071211596
0.02295239 0.01170883 -0.007271623 0.013778629 0.006664266 -0.01745068 0.004191278 0.0008841308
-0.014703971 0.0046281456 -0.010319445 -0.01378564 0.0012304112 0.0075153024 -0.0051274076 0.00026301318
-0.009015917 0.0034054571 0.0050693373 0.0011194044 0.0028988023 -0.010480333 0.003458427 0.0033744157
0.000529604 0.014504141 0.0040468993 -0.008128181 -0.0025560143 -0.0009750727 0.0026922924 0.0064149634
0.008193336 -0.0029636305 -0.00056285143 0.005746598 0.0020890317 0.02042829 -0.009643646 0.00023703229
0.008837197 0.00055772124 -3.5319666e-05 -0.003214952 -0.0078762565 -0.011330566 0.021806974 -0.017444003
-0.0027510414 -0.002223421 0.015449623 0.005307297 -0.00927602 -0.010249723 0.009230998 -8.1022234e-05
0.0063987086 0.0057832296 -0.004498472 0.00024806682 -0.0068720463 0.009228181 0.006743222 -0.0016634524
0.0043648407 -0.0055583627 -0.005173912 0.012360834 0.0042613386 -0.00390173 0.01721024 0.00044279444
0.014421053 -0.01368542 -0.012860211 -0.0047751903 -0.016367462 -0.0010507159 0.012227134 0.003505949
0.0070253364 -0.0069524543 -0.011439505 -0.008451587 0.01831227 -0.00484626 0.01232983 -0.003791973
0.0031294157 -0.0008308044 -0.0046908 0.011751367 -0.008651338 0.00013711554 0.0047755656 -0.0021534688
0.010066524 0.0041994094 0.002962765 -0.009744989 0.020254685 -0.00507327 0.012244274 -0.021863185
-0.0014027386 -0.008543064 -0.016866103 0.005926734 -0.012670698 -0.008312307 0.0090293465 0.010608717
00000000: 8ff0 02bc f5ac 28bb ecd1 36bc d5d0 13bc
00000010: d7ca 953b 337d 273b cbb5 0cbb d95b a7bc
00000020: 022e 8a3b 74b6 313b c821 6f3c 5baf 4fbb
00000030: dd77 da3b f952 443c fc2d 0c3c 4bad 3aba
00000040: a706 bc3c 64d6 3f3c cb46 eebb c2bf 613c
00000050: ea5f da3b baf4 8ebc fd56 893b 03c5 673a
00000060: ede8 70bc b3a7 973b e412 29bc 2add 61bc
00000070: c045 a13a ed42 f63b d003 a8bb 08e5 8939
00000080: 7fb7 13bc 172e 5f3b af1c a63b fbb8 923a
00000090: d5f9 3d3b b4b5 2bbc c7a6 623b 4d25 5d3b
000000a0: 1fd5 0a3a c7a2 6d3c da9b 843b 102c 05bc
000000b0: ce82 27bb 059c 7fba 2c71 303b 9d34 d23b
000000c0: 583d 063c 7839 42bb 528c 13ba f54d bc3b
000000d0: 23e8 083b 3b59 a73c 6200 1ebc df8b 7839
000000e0: e4c9 103c 0a34 123a 3424 14b8 f2b1 52bb
000000f0: 6a0b 01bc d7a3 39bc 8aa4 b23c bae6 8ebc
00000100: d14a 34bb d0b6 11bb 6a20 7d3c d6e8 ad3b
00000110: 73fa 17bc 74ee 27bc 9d3d 173c 7bea a9b8
00000120: 42ac d13b 3f81 bd3b eb67 93bb f70e 8239
00000130: e72e e1bb cc31 173c 3ff6 dc3b 3308 daba
00000140: f006 8f3b ed22 b6bb eb89 a9bb 1885 4a3c
00000150: b3a2 8b3b 2bb4 7fbb 7dfc 8c3c dd26 e839
00000160: 4846 6c3c d038 60bc a2b3 52bc 3379 9cbb
00000170: 0e15 86bc 2db8 89ba 5154 483c 10c4 653b
00000180: cb34 e63b 6ad1 e3bb c36c 3bbc 8678 0abc
00000190: 9d03 963c 60cd 9ebb 0e03 4a3c c082 78bb
000001a0: e216 4d3b 57ca 59ba 48b5 99bb ce88 403c
000001b0: 57be 0dbc acc6 0f39 597c 9c3b 3621 0dbb
000001c0: 10ee 243c 339b 893b f32a 423b 72a9 1fbc
000001d0: 27ed a53c ac3d a6bb 359c 483c 6c1a b3bc
000001e0: 19dc b7ba 35f8 0bbc c82a 8abc 0c35 c23b
000001f0: c298 4fbc 5830 08bc d3ef 133c 2fd0 2d3c

action_model._discrete_distribution.branches.4.weight f4 [1, 128]
-0.00940002 0.010868973 0.0032718838 0.0075738537 -0.0069620362 -0.013625219 0.012264167 -0.0019379979
-0.0030081691 0.0092024105 -0.009976336 0.0006508225 -0.02959664 0.0056755114 -0.014865045 0.015053259
0.0065517314 0.0001647124 -0.0076629743 0.0035119378 -0.014515339 0.011807752 -0.011039285 -0.010965253
0.006032246 0.0064830403 -0.010782686 0.012735422 -0.0042132474 -0.0085502 0.0005208215 0.01354367
-0.008911266 -0.0049746134 -0.0086085135 0.0008957522 0.014550927 -0.0095425965 0.00017731845 0.022268048
0.0124299405 -0.010298862 0.007944722 -0.00560663 -0.008470466 -0.010986689 0.0043973974 -0.012997854
-0.0064641805 0.006677425 0.003701421 -0.0031644031 0.019956527 0.0044136303 -0.009007117 0.0026346555
0.010498687 -0.011313281 0.017568808 -0.0027248932 -0.006505987 -0.011244652 0.011269989 0.0008493494
-0.0073335744 0.0025292567 0.012561694 -0.008306653 0.004942308 -0.002517184 0.009312496 0.00029457943
0.01194791 0.011286786 0.0003400664 -0.004409424 -0.0014472579 0.003041718 0.00019361028 0.0064649335
0.009191703 0.01079817 -0.011768507 -0.0027027666 -0.009467878 0.017633084 -1.5621756e-05 -0.005837864
-0.011433513 0.00417813 0.0010224573 -0.0035786075 0.0040250006 0.0012008896 0.0011105445 -0.0012662639
0.010824919 0.0050766617 -0.00878296 -0.0013127801 0.004550125 0.010909478 -0.0058764494 -0.0071295514
0.0029860556 -0.0028330397 -0.006903135 0.011003148 -0.0069467346 -0.0075362497 -8.311841e-05 -0.017112456
0.0041282387 0.0021637068 0.0077450485 -0.0017606778 0.0068738707 0.006434981 0.010979936 0.0042840643
-0.0078912815 0.008396609 0.014876409 0.0011569754 0.006262505 -0.011573879 -0.0034805723 0.017615374
00000000: 8b02 1abc c713 323c 1a6d 563b 172e f83b
00000010: cb21 e4bb 503c 5fbc a5ef 483c 6b04 feba
00000020: b424 45bb b5c5 163c c973 23bc f59b 2a3a
00000030: a774 f2bc a4f9 b93b 858c 73bc f2a1 763c
00000040: e8af d63b a6b6 2c39 b019 fbbb 8a28 663b
00000050: bfd1 6dbc 4d75 413c 1ede 34bc 9ba7 33bc
00000060: 26aa c53b af6f d43b dda9 30bc 3ba8 503c
00000070: 480f 8abb 2316 0cbc bd87 083a 45e6 5d3c
00000080: 8f00 12bc 1502 a3bb b90a 0dbc ead0 6a3a
00000090: 0367 6e3c 8d58 1cbc 8fee 3939 7b6b b63c
000000a0: f3a6 4b3c 8fbc 28bc 942a 023c d2b7 b7bb
000000b0: b6c7 0abc 8301 34bc 0b18 903b f3f4 54bc
000000c0: 7ad1 d3bb 4dce da3b 8a93 723b e061 4fbb
000000d0: df7b a33c 37a0 903b 9692 13bc 2faa 2c3b
000000e0: af02 2c3c 575b 39bc 76ec 8f3c 1f94 32bb
000000f0: 2d30 d5bb 7d3b 38bc c3a5 383c e0a6 5e3a
00000100: 7b4e f0bb e3c1 253b 90cf 4d3c a118 08bc
00000110: 16f3 a13b 57f7 24bb 7093 183c c871 9a39
00000120: 2bc1 433c 36ec 383c f14a b239 ee7c 90bb
00000130: ebb1 bdba 8f57 473b dd03 4b39 cbd7 d33b
00000140: cc98 163c cfea 303c b2d0 40bc e620 31bb
00000150: 291f 1bbc 4273 903c 770b 83b7 8d4b bfbb
00000160: a153 3bbc b2e8 883b f903 863a 1287 6abb
00000170: 27e4 833b 2b67 9d3a b18f 913a c4f8 a5ba
00000180: 005b 313c 205a a63b 67e6 0fbc 9711 acba
00000190: 3719 953b abbd 323c 3b8f c0bb 039f e9bb
000001a0: b3b1 433b 85aa 39bb b233 e2bb 8c46 343c
000001b0: 6fa1 e3bb a5f2 f6bb db4f aeb8 6c2f 8cbc
000001c0: 2d46 873b facc 0d3b 2dca fd3b 8bc6 e6ba
000001d0: 353e e13b 88dc d23b 31e5 333c 5661 8c3b
000001e0: 6f4a 01bc ee91 093c 2fbc 733c a7a5 973a
000001f0: b335 cd3b 5ea0 3dbc 501a 64bb 1e4e 903c
