results/ppo/Fly/Fly-6976.onnx (onnx, 82110 bytes, 15 tensors)

discrete_act_size_vector f4 [1, 5]
2.0 2.0 1.0 1.0 1.0
00000000: 0000 0040 0000 0040 0000 803f 0000 803f
00000010: 0000 803f

network_body._body_endoder.seq_layers.0.weight f4 [128, 1]
0.19498616 -1.0836014 1.1757501 0.6931371 -0.076723196 -0.52017343 0.7570428 -1.7507246
0.7773807 0.28696096 -0.21191132 -0.21174186 2.9609091 -0.8454547 0.17500553 0.6810302
0.46623638 1.033292 0.12704687 -0.32784528 -0.5839961 -1.0095716 -1.0262268 0.20515484
-0.3372457 0.9799672 -0.896057 0.42472112 0.27340844 -1.0133586 -0.2878606 -0.081620105
-0.9118765 -0.42388213 -0.7277928 0.04946753 0.4777016 0.830911 0.61942846 1.2180419
0.4357164 -0.6318609 -1.341596 -0.7529749 1.5898377 -0.26536453 0.106362365 -0.70600307
-0.14780508 1.2132577 -0.62640005 -0.33391204 -0.49667662 -0.39301932 -0.3024524 -0.7771352
-1.3163434 1.7364546 -0.8435221 -1.1543174 -0.745256 -0.2944802 -0.48048323 0.13290636
0.71587837 0.084079415 -0.9599621 -0.6451667 1.3413322 0.82526106 0.77870923 -1.3629032
0.35729763 -0.6190904 2.4195826 -2.3747673 1.0819306 1.2493535 -0.81849647 -2.7428975
-0.64946616 -0.2615216 -3.443741 0.11533718 -0.7064061 -1.4658855 1.4567015 -0.5616687
-0.25189286 -0.78745776 -0.5764571 0.75581694 0.44656134 1.4272277 -1.521764 0.5260168
0.08553522 -0.3606252 -0.2288145 -0.93842435 0.05249337 -0.3679573 -1.029134 -0.514745
-0.477474 0.18149763 0.24145317 -1.3852642 -0.7756488 1.7431874 -0.8958487 -0.44061255
-1.1075858 -0.21396668 0.8098501 0.7200959 0.7340893 0.5181407 0.012013074 -0.5827428
0.72045696 -0.33235905 1.0275923 -0.62104964 -0.68686914 0.31019557 0.30876914 -1.1075587
00000000: 74aa 473e 73b3 8abf fb7e 963f 6f71 313f
00000010: 0d21 9dbd 162a 05bf 8fcd 413f be17 e0bf
00000020: 6c02 473f 8cec 923e 48ff 58be dcd2 58be
00000030: 897f 3d40 b86f 58bf a634 333e ff57 2e3f
00000040: 89b6 ee3e ea42 843f 9318 023e 56db a7be
00000050: c580 15bf a439 81bf 665b 83bf 1c14 523e
00000060: 78ab acbe 21df 7a3f fe63 65bf 0c75 d93e
00000070: 31fc 8b3e bcb5 81bf 7762 93be 7128 a7bd
00000080: bd70 69bf 1407 d9be a150 3abf 779e 4a3d
00000090: 4e95 f43e 95b6 543f dd92 1e3f cce8 9b3f
000000a0: 3816 df3e a3c1 21bf 6bb9 abbf f7c2 40bf
000000b0: cd7f cb3f dcdd 87be 83d4 d93d 9ebc 34bf
000000c0: 375a 17be 074c 9b3f c15b 20bf 85f6 aabe
000000d0: 664c febe d439 c9be 0adb 9abe 55f2 46bf
000000e0: f17d a8bf 2544 de3f 10f1 57bf acc0 93bf
000000f0: 19c9 3ebf 1cc6 96be e601 f6be 9b18 083e
00000100: ce43 373f d431 ac3d 14c0 75bf a529 25bf
00000110: c6b0 ab3f 4f44 533f 7d59 473f 9d73 aebf
00000120: b7ef b63e b57c 1ebf 71da 1a40 30fc 17c0
00000130: b47c 8a3f d1ea 9f3f fc88 51bf a28b 2fc0
00000140: 6a43 26bf 29e6 85be 4166 5cc0 e635 ec3d
00000150: 08d7 34bf 23a2 bbbf 3275 ba3f 85c9 0fbf
00000160: 1af8 80be d596 49bf b192 13bf 387d 413f
00000170: b0a3 e43e 66af b63f 2ac9 c2bf 09a9 063f
00000180: 172d af3d dea3 b8be 594e 6abe 943c 70bf
00000190: 4a03 573d e664 bcbe aaba 83bf 54c6 03bf
000001a0: 7977 f4be 84da 393e 803f 773e 5650 b1bf
000001b0: eb90 46bf c420 df3f 5756 65bf f897 e1be
000001c0: 5fc5 8dbf 151a 5bbe 5652 4f3f 3458 383f
000001d0: 47ed 3b3f dea4 043f 7cd2 443c a22e 15bf
000001e0: de6f 383f f72a aabe 2588 833f 1cfd 1ebf
000001f0: a8d6 2fbf f4d1 9e3e fd16 9e3e 7cc4 8dbf

network_body._body_endoder.seq_layers.0.bias f4 [128]
0.0 0.0 0.0 0.0 0.0 0.0 0.0 0.0
0.0 0.0 0.0 0.0 0.0 0.0 0.0 0.0
0.0 0.0 0.0 0.0 0.0 0.0 0.0 0.0
0.0 0.0 0.0 0.0 0.0 0.0 0.0 0.0
0.0 0.0 0.0 0.0 0.0 0.0 0.0 0.0
0.0 0.0 0.0 0.0 0.0 0.0 0.0 0.0
0.0 0.0 0.0 0.0 0.0 0.0 0.0 0.0
0.0 0.0 0.0 0.0 0.0 0.0 0.0 0.0
0.0 0.0 0.0 0.0 0.0 0.0 0.0 0.0
0.0 0.0 0.0 0.0 0.0 0.0 0.0 0.0
0.0 0.0 0.0 0.0 0.0 0.0 0.0 0.0
0.0 0.0 0.0 0.0 0.0 0.0 0.0 0.0
0.0 0.0 0.0 0.0 0.0 0.0 0.0 0.0
0.0 0.0 0.0 0.0 0.0 0.0 0.0 0.0
0.0 0.0 0.0 0.0 0.0 0.0 0.0 0.0
0.0 0.0 0.0 0.0 0.0 0.0 0.0 0.0
00000000: 0000 0000 0000 0000 0000 0000 0000 0000
00000010: 0000 0000 0000 0000 0000 0000 0000 0000
00000020: 0000 0000 0000 0000 0000 0000 0000 0000
00000030: 0000 0000 0000 0000 0000 0000 0000 0000
00000040: 0000 0000 0000 0000 0000 0000 0000 0000
00000050: 0000 0000 0000 0000 0000 0000 0000 0000
00000060: 0000 0000 0000 0000 0000 0000 0000 0000
00000070: 0000 0000 0000 0000 0000 0000 0000 0000
00000080: 0000 0000 0000 0000 0000 0000 0000 0000
00000090: 0000 0000 0000 0000 0000 0000 0000 0000
000000a0: 0000 0000 0000 0000 0000 0000 0000 0000
000000b0: 0000 0000 0000 0000 0000 0000 0000 0000
000000c0: 0000 0000 0000 0000 0000 0000 0000 0000
000000d0: 0000 0000 0000 0000 0000 0000 0000 0000
000000e0: 0000 0000 0000 0000 0000 0000 0000 0000
000000f0: 0000 0000 0000 0000 0000 0000 0000 0000
00000100: 0000 0000 0000 0000 0000 0000 0000 0000
00000110: 0000 0000 0000 0000 0000 0000 0000 0000
00000120: 0000 0000 0000 0000 0000 0000 0000 0000
00000130: 0000 0000 0000 0000 0000 0000 0000 0000
00000140: 0000 0000 0000 0000 0000 0000 0000 0000
00000150: 0000 0000 0000 0000 0000 0000 0000 0000
00000160: 0000 0000 0000 0000 0000 0000 0000 0000
00000170: 0000 0000 0000 0000 0000 0000 0000 0000
00000180: 0000 0000 0000 0000 0000 0000 0000 0000
00000190: 0000 0000 0000 0000 0000 0000 0000 0000
000001a0: 0000 0000 0000 0000 0000 0000 0000 0000
000001b0: 0000 0000 0000 0000 0000 0000 0000 0000
000001c0: 0000 0000 0000 0000 0000 0000 0000 0000
000001d0: 0000 0000 0000 0000 0000 0000 0000 0000
000001e0: 0000 0000 0000 0000 0000 0000 0000 0000
000001f0: 0000 0000 0000 0000 0000 0000 0000 0000

network_body._body_endoder.seq_layers.2.weight f4 [128, 128]
0.005124119 0.1897755 0.20002477 0.007439693 0.20414557 0.09924831 -0.12287865 -0.06106756
0.110764526 -0.1959635 -0.00018671373 0.10910586 -0.04772056 -0.039748676 0.053744316 -0.021371659
-0.018451646 0.08047809 0.08594104 0.035697125 -0.0938758 0.09042271 -0.022566697 0.015519162
-0.21520855 0.19128609 -0.13423952 -0.016016131 0.038534172 0.19501488 0.084412634 0.01659362
0.14514774 -0.05776499 -0.040183533 -0.11347278 0.110594854 -0.1354197 0.083646014 -0.029188154
0.09698841 0.03175775 0.097885475 0.08419575 0.04494149 0.06664458 -0.07879915 -0.046433635
0.07692471 0.0718898 -0.05366729 -0.016059395 -0.008330034 -0.12468194 -0.041097097 0.056352578
0.07893175 0.053392544 0.015812831 -0.057578377 0.081199 -0.055293515 -0.07557438 0.19805837
-0.03812023 0.112347595 -0.0011905356 0.09939415 -0.09703863 0.022275973 -0.045586135 -0.016519878
0.0503774 0.0096045425 0.096654974 0.15579686 -0.035572417 -0.044957712 0.13560657 0.07046089
0.033343907 0.039938875 -0.082742065 0.0043389658 0.11626528 0.098882504 -0.021099564 -0.1712035
-0.16177636 -0.12640809 -0.11768652 0.077663176 0.04945863 0.004420471 0.008216772 0.05743035
0.071542725 -0.14985102 0.122017615 -0.12699637 0.066796586 0.046435393 0.046184875 -0.07162887
-0.0035910653 -0.09454484 0.14612226 0.00072123087 0.032772183 0.017208986 0.07540668 -0.12809758
-0.22445384 0.02662951 0.09126888 -0.030432934 -0.13798073 -0.05304649 0.077878006 0.036941983
-0.09925671 -0.01288145 0.22500452 0.030850552 -0.014484536 0.054853432 -0.08560752 0.114447765
-0.027620729 -0.061043523 0.008542755 0.024066536 0.09936018 0.19774182 0.013087482 -0.029194878
-0.036543038 0.097578965 0.09481639 -0.0895631 0.035297833 -0.1905843 -0.022451771 0.050210703
-0.019228159 0.08804458 0.012952844 -0.20449015 -0.017615011 0.05993494 -0.0320893 -0.04311673
0.076367036 0.0037249003 -0.029291574 -0.025404787 0.04254537 -0.042965166 -0.10738736 -0.16982293
-0.09134867 -0.048138756 0.11155894 0.021065418 -0.09033236 0.14703372 -0.08595661 0.07631259
0.09573056 0.046726022 -0.04523117 -0.01375491 -0.015234533 0.12698632 -0.05188371 -0.04128715
0.03520336 0.012143519 0.10508556 -0.023543587 -0.10574405 0.0127138775 0.033829655 -0.038480837
0.029244583 0.03701246 -0.04226308 0.05528884 -0.06766088 -0.05617925 0.0349856 -0.07838832
-0.038572904 0.014271946 -0.14204262 -0.011232993 0.16449305 -0.0740963 -0.02287668 -0.08319391
-0.16844891 0.014163692 -0.055310674 0.106039084 0.035895806 0.040615365 0.10593338 -0.023458201
-0.07037097 0.057265442 0.006042616 0.0053395415 -0.06648235 -0.00191096 0.045390543 -0.00066104624
-0.0069063785 -0.0048355656 0.091679364 -0.09133948 -0.057623416 -0.21388736 -0.11679172 -0.048981074
0.029809922 -0.08953508 0.062381867 -0.0055958056 0.016991874 0.07864896 -0.048660673 -0.104044035
0.0068857325 0.065433174 0.022059416 0.019106124 -0.018689252 0.05495273 -0.0014364332 0.12183666
-0.13332686 -0.08193635 0.09588507 0.11446003 0.062521264 0.09987604 0.014352141 -0.11023964
-0.07792479 -0.10402536 0.04986529 0.03379596 0.11535707 -0.14679232 -0.071106724 -0.07907352
00000000: 3ae8 a73b 8254 423e 4bd3 4c3e abc8 f33b
00000010: 890b 513e b342 cb3d cda7 fbbd fa21 7abd
00000020: 83d8 e23d a8aa 48be 96c8 43b9 e572 df3d
00000030: a276 43bd 82cf 22bd 0023 5c3d 9e13 afbc
00000040: e827 97bc b2d1 a43d db01 b03d 2637 123d
00000050: f541 c0bd 8b2f b93d cbdd b8bc 1544 7e3c
00000060: a15f 5cbe 80e0 433e 1676 09be 4334 83bc
00000070: 02d6 1d3d fbb1 473e 88e0 ac3d 58ef 873c
00000080: 9ca1 143e fb9a 6cbd 7d97 24bd 6b64 e8bd
00000090: 8e7f e23d 76ab 0abe 9a4e ab3d ff1b efbc
000000a0: dca1 c63d 6a14 023d 2e78 c83d d26e ac3d
000000b0: 9114 383d f47c 883d 7361 a1bd 3231 3ebd
000000c0: b48a 9d3d f63a 933d 3bd2 5bbd fe8e 83bc
000000d0: b27a 08bc 3f59 ffbd 6e55 28bd f6d1 663d
000000e0: f8a6 a13d 24b2 5a3d e989 813c 4ed7 6bbd
000000f0: a94b a63d 747b 62bd bec6 9abd d0cf 4a3e
00000100: f523 1cbd 7f16 e63d bf0b 9cba 298f cb3d
00000110: 30bc c6bd 1a7c b63c 87b8 3abd b254 87bc
00000120: 8858 4e3d 5f5c 1d3c 0bf3 c53d 3689 1f3e
00000130: 62b4 11bd 9425 38bd 73dc 0a3e cd4d 903d
00000140: 9f93 083d f296 233d ac74 a9bd e22d 8e3b
00000150: 7e1c ee3d e982 ca3d fed8 acbc f84f 2fbe
00000160: b4a8 25be 1f71 01be a105 f1bd df0d 9f3d
00000170: 2295 4a3d 99d9 903b a49f 063c 163c 6b3d
00000180: fe84 923d 8c72 19be 5fe4 f93d 560b 02be
00000190: a6cc 883d 0a33 3e3d 5a2c 3d3d 28b2 92bd
000001a0: 1458 6bbb baa0 c1bd 13a1 153e fc10 3d3a
000001b0: 203c 063d dcf9 8c3c d16e 9a3d 032c 03be
000001c0: 3ad7 65be 2126 da3c 2eeb ba3d 7d4e f9bc
000001d0: d24a 0dbe 4747 59bd 817e 9f3d 7a50 173d
000001e0: 1a47 cbbd b80c 53bc 9667 663e 4cba fc3c
000001f0: 8c50 6dbc fead 603d ff52 afbd 9763 ea3d
00000200: de44 e2bc c608 7abd e9f6 0b3c 2f27 c53c
00000210: 5a7d cb3d d57c 4a3e e16c 563c 192a efbc
00000220: 27ae 15bd 7bd7 c73d 182f c23d dc6c b7bd
00000230: 7694 103d 8828 43be c7ec b7bc bda9 4d3d
00000240: 5f84 9dbc b750 b43d 2a38 543c de65 51be
00000250: 5b4d 90bc 577e 753d 1270 03bd 2b9b 30bd
00000260: 5266 9c3d 751d 743b e2f4 efbc b31d d0bc
00000270: 0e44 2e3d 3efc 2fbd e7ed dbbd 10e6 2dbe
00000280: 0315 bbbd 252d 45bd 0379 e43d 6291 ac3c
00000290: 2c00 b9bd 0290 163e 050a b0bd c649 9c3d
000002a0: 620e c43d c963 3f3d 5244 39bd 465c 61bc
000002b0: 439a 79bc b408 023e 0384 54bd b71c 29bd
000002c0: 6631 103d 9cf5 463c 1937 d73d 7bde c0bc
000002d0: 5690 d8bd de4d 503c f790 0a3d 159e 1dbd
000002e0: 5692 ef3c 619a 173d 0d1c 2dbd 8d76 623d
000002f0: ca91 8abd 371c 66bd 0f4d 0f3d 0e8a a0bd
00000300: 9ffe 1dbd e1d4 693c 9f73 11be 960a 38bc
00000310: de70 283e cdbf 97bd e067 bbbc 9261 aabd
00000320: df7d 2cbe d40e 683c 728d 62bd 052b d93d
00000330: 7b07 133d 4c5c 263d 9af3 d83d 6a2b c0bc
00000340: a81e 90bd 2b8f 6a3d 2301 c63b 52f7 ae3b
00000350: e627 88bd 2d79 faba 6feb 393d 104a 2dba
00000360: e74e e2bb aa73 9ebb 64c2 bb3d 3110 bbbd
00000370: 8806 6cbd 4a05 5bbe 7f30 efbd 61a0 48bd
00000380: f033 f43c 2b5e b7bd 2184 7f3d 055d b7bb
00000390: 8b32 8b3c b512 a13d 6a50 47bd 0a15 d5bd
000003a0: b6a1 e13b d401 863d f3b5 b43c 7284 9c3c
000003b0: 341a 99bc 1d16 613d b346 bcba 8085 f93d
000003c0: d686 08be 3fce a7bd 645f c43d 056a ea3d
000003d0: 260b 803d cf8b cc3d 3e25 6b3c 52c5 e1bd
000003e0: 0897 9fbd 3f0b d5bd 8c3f 4c3d a26d 0a3d
000003f0: 5440 ec3d ba50 16be 67a0 91bd 4cf1 a1bd

network_body._body_endoder.seq_layers.2.bias f4 [128]
0.0 0.0 0.0 0.0 0.0 0.0 0.0 0.0
0.0 0.0 0.0 0.0 0.0 0.0 0.0 0.0
0.0 0.0 0.0 0.0 0.0 0.0 0.0 0.0
0.0 0.0 0.0 0.0 0.0 0.0 0.0 0.0
0.0 0.0 0.0 0.0 0.0 0.0 0.0 0.0
0.0 0.0 0.0 0.0 0.0 0.0 0.0 0.0
0.0 0.0 0.0 0.0 0.0 0.0 0.0 0.0
0.0 0.0 0.0 0.0 0.0 0.0 0.0 0.0
0.0 0.0 0.0 0.0 0.0 0.0 0.0 0.0
0.0 0.0 0.0 0.0 0.0 0.0 0.0 0.0
0.0 0.0 0.0 0.0 0.0 0.0 0.0 0.0
0.0 0.0 0.0 0.0 0.0 0.0 0.0 0.0
0.0 0.0 0.0 0.0 0.0 0.0 0.0 0.0
0.0 0.0 0.0 0.0 0.0 0.0 0.0 0.0
0.0 0.0 0.0 0.0 0.0 0.0 0.0 0.0
0.0 0.0 0.0 0.0 0.0 0.0 0.0 0.0
00000000: 0000 0000 0000 0000 0000 0000 0000 0000
00000010: 0000 0000 0000 0000 0000 0000 0000 0000
00000020: 0000 0000 0000 0000 0000 0000 0000 0000
00000030: 0000 0000 0000 0000 0000 0000 0000 0000
00000040: 0000 0000 0000 0000 0000 0000 0000 0000
00000050: 0000 0000 0000 0000 0000 0000 0000 0000
00000060: 0000 0000 0000 0000 0000 0000 0000 0000
00000070: 0000 0000 0000 0000 0000 0000 0000 0000
00000080: 0000 0000 0000 0000 0000 0000 0000 0000
00000090: 0000 0000 0000 0000 0000 0000 0000 0000
000000a0: 0000 0000 0000 0000 0000 0000 0000 0000
000000b0: 0000 0000 0000 0000 0000 0000 0000 0000
000000c0: 0000 0000 0000 0000 0000 0000 0000 0000
000000d0: 0000 0000 0000 0000 0000 0000 0000 0000
000000e0: 0000 0000 0000 0000 0000 0000 0000 0000
000000f0: 0000 0000 0000 0000 0000 0000 0000 0000
00000100: 0000 0000 0000 0000 0000 0000 0000 0000
00000110: 0000 0000 0000 0000 0000 0000 0000 0000
00000120: 0000 0000 0000 0000 0000 0000 0000 0000
00000130: 0000 0000 0000 0000 0000 0000 0000 0000
00000140: 0000 0000 0000 0000 0000 0000 0000 0000
00000150: 0000 0000 0000 0000 0000 0000 0000 0000
00000160: 0000 0000 0000 0000 0000 0000 0000 0000
00000170: 0000 0000 0000 0000 0000 0000 0000 0000
00000180: 0000 0000 0000 0000 0000 0000 0000 0000
00000190: 0000 0000 0000 0000 0000 0000 0000 0000
000001a0: 0000 0000 0000 0000 0000 0000 0000 0000
000001b0: 0000 0000 0000 0000 0000 0000 0000 0000
000001c0: 0000 0000 0000 0000 0000 0000 0000 0000
000001d0: 0000 0000 0000 0000 0000 0000 0000 0000
000001e0: 0000 0000 0000 0000 0000 0000 0000 0000
000001f0: 0000 0000 0000 0000 0000 0000 0000 0000

action_model._continuous_distribution.log_sigma f4 [1, 4]
0.0 0.0 0.0 0.0
00000000: 0000 0000 0000 0000 0000 0000 0000 0000

action_model._continuous_distribution.mu.weight f4 [4, 128]
0.011118563 0.006585296 0.009124891 0.0067979107 0.015654633 0.0066859447 -0.003915526 0.0019409707
0.015813107 -0.026511112 -0.020825578 -0.018668232 -0.00040069353 0.028394941 -0.02730682 -0.020900385
-0.011269494 -0.023235094 -0.014532978 0.026791865 -0.017712027 -0.015386212 -0.0059491275 -0.03083756
0.004274545 0.0057676653 0.021963315 0.020563474 -0.014431438 -0.019774524 0.0057394686 -0.008896062
-0.020169886 0.015481189 -0.02870957 -0.014761371 0.026919842 0.026363576 0.021755744 -0.013379009
-0.0107703665 -0.039397437 0.01026269 -0.006983645 -0.021659521 0.028650125 -0.007107208 -0.01157579
-0.023629436 -0.037099604 -0.012416433 0.0032820215 -0.016426293 -0.01956658 -0.02114931 0.0048213773
-0.0083097415 -0.00019879149 -0.020956365 0.008108343 0.005635213 -0.0029630188 -0.03271274 0.0029233505
0.025068883 -0.023176832 0.01348869 0.029967874 0.020692302 0.0031479746 0.02556111 -0.028093124
-0.031878445 -0.022875177 -0.0007059707 0.017191885 0.0076746084 0.013072661 0.007142668 -0.018995414
0.004747241 0.009805912 0.014354798 0.0014432429 -0.020176461 -0.031113243 0.009335348 -0.021112027
0.028262202 -0.01803011 0.0011957209 0.01041361 -0.009830551 -0.024638403 0.015605198 0.016245583
-0.02362802 -0.025472982 -0.020192102 0.002586611 -0.023348153 -0.0045071724 0.005314655 0.029793372
-0.024022631 -0.013295156 0.022126338 0.011350932 -0.013544326 -0.016254565 -0.01542707 0.025451496
-0.029639376 -0.009988326 0.010716035 0.020057945 0.027271096 0.0126909455 -0.011945397 0.013172559
0.019562539 0.0033817687 -0.04759245 0.002375758 -0.022158943 0.0045872782 0.03438532 -0.03223675
0.012073233 0.029502809 0.0036772378 -0.020829743 -0.020987397 -0.036559418 0.02371765 -0.0055970615
-0.016160883 0.029795552 -0.004361385 -0.003155625 -0.005789613 -0.017538581 0.013821005 -0.024871727
-0.046916768 -0.013344556 -0.027373496 0.00723888 -0.021749297 -0.03100193 0.032303765 0.01502709
-0.007879117 0.021645125 -0.025190681 0.013278591 -0.011497226 0.007835132 -0.023451287 -0.019885967
-0.01300457 0.020676462 -0.008219679 -0.017135415 -0.00957559 0.021047726 0.028914884 -0.030942133
-0.0047665737 -0.011261599 -0.021613708 0.03719799 0.0044344827 0.011024904 0.01857293 -0.03357547
0.028369967 -0.025021289 0.0010333948 -0.009229119 0.0073804245 0.0071777985 0.0034435533 -0.040009107
0.00062987016 0.014753862 -0.0022439212 0.004834037 -0.00044420175 -0.006150681 0.028345723 -0.0010903385
0.029956067 -0.0033872754 0.01649074 -0.030383045 -0.0070170374 -0.02698033 -0.007802967 -0.0048265085
-0.005917995 0.009482204 0.0101972325 0.019423148 0.022447256 0.00043656738 0.015251174 -0.012007399
0.012336155 -0.026470188 -0.016211053 -0.019708272 0.02191264 0.005801795 -0.007631446 0.011006907
-0.026049882 0.011935118 0.010884477 -0.009777446 0.012226797 0.026614556 -0.008801787 0.010529545
-0.017289715 -0.017084371 0.01309094 -0.005024185 -0.0043191533 -0.0037951635 -0.008574226 0.0050769146
-0.04066866 0.002362926 0.012404627 0.02248357 -0.014283544 -0.019121105 -0.009160104 0.009464427
0.017323434 0.019556811 -0.014167028 0.0243965 -0.01042999 -0.0027501134 -0.000530992 -0.007137266
-0.013383932 0.005010066 0.0045165746 -0.011148945 -0.024082696 -0.0019012776 0.009181294 0.0047882474
00000000: a22a 363c 77c9 d73b 9180 153c 02c1 de3b
00000010: 253e 803c c515 db3b d04d 80bb 2b68 fe3a
00000020: 7d8a 813c d52d d9bc 679a aabc 1fee 98bc
00000030: 2d14 d2b9 829c e83c 8db2 dfbc 4937 abbc
00000040: afa3 38bc 8657 bebc ba1b 6ebc 9d7a db3c
00000050: d018 91bc 7316 7cbc e6f0 c2bb 0d9f fcbc
00000060: 7b11 8c3b affe bc3b 69ec b33c bb74 a83c
00000070: d771 6cbc 2ffe a1bc 2712 bc3b cac0 11bc
00000080: 513b a5bc d0a4 7d3c 5530 ebbc add9 71bc
00000090: 0087 dc3c 6df8 d73c 1a39 b23c a233 5bbc
000000a0: 3176 30bc 355f 21bd d724 283c 0fd7 e4bb
000000b0: 4f6f b1bc abb3 ea3c 95e3 e8bb 62a8 3dbc
000000c0: 8592 c1bc c1f5 17bd 4b6e 4bbc 2f17 573b
000000d0: 6f90 86bc 184a a0bc 5141 adbc a5fc 9d3b
000000e0: 9525 08bc af72 50b9 afac abbc dbd8 043c
000000f0: 98a7 b83b 352f 42bb cbfd 05bd af95 3f3b
00000100: 425d cd3c 57dd bdbc abff 5c3c 307f f53c
00000110: e782 a93c 404e 4e3b 8865 d13c 8d23 e6bc
00000120: f992 02bd b964 bbbc e410 39ba ffd5 8c3c
00000130: 487b fb3b b72e 563c 0b0d ea3b 459c 9bbc
00000140: be8e 9b3b faa8 203c 6330 6b3c 322b bd3a
00000150: 1b49 a5bc 33e1 febc 4af3 183c 21f3 acbc
00000160: 2286 e73c e2b3 93bc bcb9 9c3a d99d 2a3c
00000170: 5210 21bc 7ad6 c9bc f2ac 7f3c 7515 853c
00000180: 8d8f c1bc b7ac d0bc e869 a5bc 2284 293b
00000190: a044 bfbc e7b0 93bb 8f26 ae3b 3b11 f43c
000001a0: 1ccb c4bc edd3 59bc 4b42 b53c 42f9 393c
000001b0: 05e9 5dbc 4b28 85bc d2c1 7cbc a87f d03c
000001c0: 47ce f2bc 13a6 23bc 4f92 2f3c 8f50 a43c
000001d0: a267 df3c afed 4f3c a0b6 43bc b8d1 573c
000001e0: 9e41 a03c aaa0 5d3b 4df0 42bd 9bb2 1b3b
000001f0: ac86 b5bc e150 963b 9fd7 0c3d af0a 04bd
00000200: cfce 453c e0af f13c d0fd 703b 23a3 aabc
00000210: c3ed abbc 54bf 15bd 844b c23c 8e67 b7bb
00000220: d463 84bc cd15 f43c f3e9 8ebb 9ace 4ebb
00000230: cbb6 bdbb 12ad 8fbc 7f71 623c cbbf cbbc
00000240: cc2b 40bd 20a3 5abc 623e e0bc 2034 ed3b
00000250: 952b b2bc c2f7 fdbc f450 043d 2f34 763c
00000260: 6917 01bc 1e51 b13c b05c cebc 738e 593c
00000270: dc5e 3cbc ed5e 003c ea1c c0bc e5e7 a2bc
00000280: 1f11 55bc af61 a93c d5ab 06bc 925f 8cbc
00000290: efe2 1cbc 486c ac3c e8de ec3c 5b7a fdbc
000002a0: eb30 9cbb 9282 38bc 3b0f b1bc eb5c 183d
000002b0: 234f 913b cda1 343c 4226 983c 6f86 09bd
000002c0: 2268 e83c 72f9 ccbc fa72 873a bb35 17bc
000002d0: 7dd7 f13b bd33 eb3b 3dad 613b 97e0 23bd
000002e0: df1d 253a 2fba 713c c00e 13bb d766 9e3b
000002f0: c0e3 e8b9 a78b c9bb 4a35 e83c b0e9 8eba
00000300: 6d66 f53c 0dfd 5dbb 9717 873c dde5 f8bc
00000310: 2def e5bb da05 ddbc 08b0 ffbb b027 9ebb
00000320: bdeb c1bb 3f5b 1b3c 4b12 273c 4b1d 9f3c
00000330: 4fe3 b73c 15e3 e439 0fe0 793c afba 44bc
00000340: 961d 4a3c 02d8 d8bc 0bcd 84bc 3e73 a1bc
00000350: 2382 b33c fc1c be3b 3511 fabb 5056 343c
00000360: 9066 d5bc 838b 433c ce54 323c 9531 20bc
00000370: e752 483c c506 da3c 5f35 10bc 1d84 2c3c
00000380: 29a3 8dbc 86f4 8bbc 627b 563c eba1 a4bb
00000390: af87 8dbb 47b8 78bb e97a 0cbc 3f5c a63b
000003a0: 2e94 26bd 52db 1a3b c73c 4b3c 772f b83c
000003b0: 8705 6abc dda3 9cbc 4314 16bc af10 1b3c
000003c0: e0e9 8d3c 9b35 a03c d21c 68bc 2bdb c73c
000003d0: 8ce2 2abc 3f3b 34bb 4532 0bba badf e9bb
000003e0: 4848 5bbc 7b2b a43b c6ff 933b 11aa 36bc
000003f0: 1349 c5bc 4a34 f9ba 236d 163c bbe6 9c3b

action_model._continuous_distribution.mu.bias f4 [4]
0.0 0.0 0.0 0.0
00000000: 0000 0000 0000 0000 0000 0000 0000 0000

action_model._discrete_distribution.branches.0.weight f4 [2, 128]
0.00043357964 -0.0013894424 0.0076414235 0.011225034 -0.0140944375 0.0021983674 0.001379624 -0.011987141
0.016715152 0.010419623 0.009291237 -0.0032775763 -0.00998473 0.0027476605 0.0031045456 0.007869157
0.0050616744 0.013255106 -0.0032220967 -0.007014138 -0.013861797 0.008160976 -0.006564942 0.010983433
-0.0018412833 -0.0119936215 0.0026954927 0.006585397 -0.0033815752 -0.017889878 0.0026249045 -0.002052788
-0.0002990465 -0.011419269 0.0068763606 0.023584243 0.0033893802 0.0041163946 0.0004178446 0.0030475128
0.007577352 0.009612112 -0.011007475 0.0031099087 -0.00094678125 0.0019936913 -0.011441107 -0.011107697
-0.0117066605 0.009378142 -0.0066279992 0.0010116975 -7.863397e-05 -0.0013295404 0.007365022 0.0036244863
0.009258996 -0.0013646936 0.0028031946 0.013087516 0.008761763 0.0028915505 0.00045346507 -0.007885362
0.009892421 -0.005386727 0.0094742505 -0.002810929 0.0019632957 0.007938399 -0.019667426 0.00069498166
0.015818447 -0.023042288 -0.003702369 0.0057875547 -0.017495185 -0.017385194 -0.014014927 -0.0027281668
-0.010411491 -0.0054855985 -0.0029252474 -0.004926128 -0.0013154027 0.0005364705 -0.0065179938 0.009316767
-0.008980475 -0.009994331 -0.013408974 -0.007536667 -0.004241105 0.003294747 -0.0050952765 -0.003435547
-0.0084674405 -0.0192697 -0.0014620838 -0.002579452 0.0026450118 0.018654216 -0.0005500026 -0.0051935236
0.010445255 0.003929112 -0.00045332164 0.0025815733 -0.00039706947 -0.014504619 -0.0012642881 0.00046967078
0.0122918105 -0.02442453 0.0005140258 0.013552727 0.00014456027 0.0043838453 -0.00282809 -0.0011000412
0.004891779 -0.0042381245 -0.0070051625 -0.00651273 0.0020828994 -0.016198773 0.0009170631 -0.0037232225
-0.016502226 0.0026192036 0.0019759687 0.015851805 0.018244889 0.012249394 -0.009321658 0.0021105998
0.014306322 -0.015101092 0.0034399794 0.0008462161 -0.0032615461 -0.0085747875 -0.007256232 0.005612591
-0.0065769926 -0.012144047 0.00442133 -0.0067879744 -0.015335301 -0.013056382 -0.0033691027 -0.0061226054
0.014188416 0.007063099 0.0019680725 0.0026891765 0.0020118526 -0.01891262 -0.0005297176 -0.01723024
0.009093081 0.0073159174 0.010755492 0.0097406795 0.0007937558 -0.0013029331 0.0040238616 -0.003107685
-0.0049728937 -0.019297643 0.0003733777 0.00022550159 0.0033595592 0.0061954935 -0.020297049 -0.004639581
0.0065002227 -0.0019607265 -0.00044608177 0.010025203 0.0029463693 0.0017013593 0.0063000494 0.006560992
-0.003252513 0.007307404 0.0038121794 -0.008710423 0.0053703594 -0.008368748 0.011544414 0.025884757
0.00021155279 -0.0012739386 0.016184634 0.00018175473 -0.020070802 -0.0011939915 0.007719233 -0.0018601913
7.827242e-05 -0.016877744 0.016399466 0.0028887952 -0.009678598 -0.00064508716 0.0031864203 -0.0040487726
0.0071620205 -0.0013589349 -0.016547477 0.005235066 0.011110353 0.00013029751 -0.016486693 -0.0051175314
-0.003920554 0.002421341 0.008359025 0.018833986 -0.0052664024 -0.00034360774 0.013319311 -0.0016618501
0.012508503 0.008181971 0.014169228 0.006681253 0.001026822 -0.009052607 0.0011195865 0.006739543
-0.012633102 0.0020911084 -0.0024548569 -0.012116052 -0.014270377 0.0007454553 -0.006310285 -0.0030680671
-0.013564817 0.006655488 -0.015312458 -0.0028014036 -0.0015492112 0.005284722 -0.0002708793 -0.0061283386
0.009802818 0.007506927 -0.0055536972 0.005983816 0.0050818715 -0.013048914 0.005703689 -0.014337505
00000000: 1352 e339 f31d b6ba e864 fa3b 34e9 373c
00000010: 5bec 66bc 7c12 103b 80d4 b43a b765 44bc
00000020: 37ee 883c 11b7 2a3c 463a 183c 9bcc 56bb
00000030: fe96 23bc 1812 343b a275 4b3b a3ed 003c
00000040: 67dc a53b f22b 593c d029 53bb dbd6 e5bb
00000050: 971c 63bc 9db5 053c ba1e d7bb dbf3 333c
00000060: 3757 f1ba e580 44bc dda6 303b 50ca d73b
00000070: 6b9d 5dbb cb8d 92bc 9706 2c3b 1188 06bb
00000080: 57c9 9cb9 e317 3bbc 1853 e13b be33 c13c
00000090: 5d20 5e3b d2e2 863b 2712 db39 c8b8 473b
000000a0: 704b f83b 1f7c 1d3c b258 34bc 9ccf 4b3b
000000b0: 6a31 78ba 97a8 023b 7b73 3bbc 0ffd 35bc
000000c0: 4bcd 3fbc c7a6 193c b02f d9bb ef9a 843a
000000d0: 4be8 a4b8 f943 aeba 4856 f13b ca88 6d3b
000000e0: 0bb3 173c 85df b2ba cdb5 373b 056d 563c
000000f0: 7f8d 0f3c 2b80 3d3b 0dbf ed39 9b31 01bc
00000100: d213 223c 2483 b0bb e339 1b3c 9037 38bb
00000110: a3aa 003b 0f10 023c 951d a1bc 6e2f 363a
00000120: b095 813c 2ec3 bcbc 72a3 72bb 87a5 bd3b
00000130: 1052 8fbc 656b 8ebc dd9e 65bc 0bcb 32bb
00000140: f594 2abc 89c0 b3bb 82b5 3fbb 5b6b a1bb
00000150: 9769 acba eda1 0c3a e594 d5bb 5aa5 183c
00000160: d822 13bc 43bf 23bc 50b1 5bbc 25f6 f6bb
00000170: f8f8 8abb afec 573b 47f6 a6bb ea26 61bb
00000180: 05bb 0abc 7ddb 9dbc 64a3 bfba 060c 29bb
00000190: ef57 2d3b bad0 983c 0d2e 10ba 6f2e aabb
000001a0: 9322 2b3c c8bf 803b cdab edb9 9d2f 293b
000001b0: c32d d0b9 c8a4 6dbc 78b6 a5ba 253e f639
000001c0: 9763 493c f415 c8bc b0bf 063a 420c 5e3c
000001d0: 1a95 1739 5ca6 8f3b 7a57 39bb 422f 90ba
000001e0: 374b a03b f7df 8abb 908b e5bb bd68 d5bb
000001f0: 4181 083b 4ab3 84bc 1067 703a 4f01 74bb
00000200: ad2f 87bc f2a6 2b3b 417f 013b a5db 813c
00000210: 4e76 953c afb1 483c deb9 18bc fd51 0a3b
00000220: 1065 6a3c 926a 77bc 4771 613b 9ad4 5d3a
00000230: aabf 55bb 447d 0cbc b0c5 edbb d3e9 b73b
00000240: d083 d7bb d3f7 46bc cee0 903b a86d debb
00000250: ea40 7bbc 6fea 55bc 2acc 5cbb 23a0 c8bb
00000260: 8876 683c 9271 e73b c7fa 003b e53c 303b
00000270: 49d9 033b a4ee 9abc bfdc 0aba 6f26 8dbc
00000280: 25fb 143c 5dba ef3b ce37 303c 5f97 1f3c
00000290: 0d14 503a 2ec7 aaba 99da 833b 4daa 4bbb
000002a0: a8f3 a2bb 1716 9ebc e8c1 c339 9f74 6c39
000002b0: 0d2c 5c3b 9103 cb3b ff45 a6bc a007 98bb
000002c0: d2ff d43b 887f 00bb 15e0 e9b9 c040 243c
000002d0: e017 413b 2500 df3a a570 ce3b 97fd d63b
000002e0: 1d28 55bb f372 ef3b c2d5 793b 29b6 0ebc
000002f0: d7f9 af3b 131d 09bc c824 3d3c 450c d43c
00000300: 45d4 5d39 49fa a6ba a395 843c 6a95 3e39
00000310: 866b a4bc b57f 9cba 9ff1 fc3b aad1 f3ba
00000320: 2f26 a438 3243 8abc 2c58 863c f151 3d3b
00000330: fb92 1ebc 111b 29ba 43d3 503b 91ab 84bb
00000340: 62af ea3b 4a1e b2ba 938e 87bc eb8a ab3b
00000350: 3308 363c 79a0 0839 1a0f 87bc f7b0 a7bb
00000360: fe77 80bb 5caf 1e3b 4bf4 083c bb49 9a3c
00000370: c991 acbb 4026 b4b9 3d39 5a3c 70d2 d9ba
00000380: 77f0 4c3c ac0d 063c 0d26 683c 6aee da3b
00000390: 6e96 863a 6351 14bc 17bf 923a 62d7 dc3b
000003a0: 12fb 4ebc fa0a 093b aae1 20bb 6882 46bc
000003b0: 4dce 69bc a96a 433a 82c6 cebb a011 49bb
000003c0: f73e 5ebc 4816 da3b 1be1 7abc c197 37bb
000003d0: e70e cbba 762b ad3b ce04 8eb9 3bd0 c8bb
000003e0: 009c 203c abfc f53b cafb b5bb e313 c43b
000003f0: d485 a63b 1dcb 55bc 03e6 ba3b dbe7 6abc

action_model._discrete_distribution.branches.0.bias f4 [2]
0.0 0.0
00000000: 0000 0000 0000 0000

action_model._discrete_distribution.branches.1.weight f4 [2, 128]
-0.0039410326 0.009962096 -0.014206759 -0.003275824 -0.0016074181 0.013981844 0.0036916283 -0.00251957
-0.0071781725 -0.0009933136 -0.008497186 0.0066904086 -0.0016335876 -0.008147046 0.016459612 0.010134736
-0.015402883 0.00069082814 -0.0114055285 -0.025486683 0.0034532628 0.012023777 -0.007434532 0.010241721
-0.012002239 -0.00088218617 0.0011450249 -0.011600925 0.007239637 -0.00587515 0.012486196 0.009512755
0.005438585 -0.0001450898 0.015326445 0.006438333 0.0042635356 0.002519556 0.0010186367 0.011413477
0.015162836 -0.010981276 0.0019472552 0.00087799784 -0.006244287 0.016079037 -0.012614098 0.020093095
-0.007277614 -0.0039963955 0.015710397 -0.005168722 -0.0067542144 -0.01624352 -0.009424087 0.008861961
0.00657617 -0.013296276 -0.0034283695 0.001247965 -0.01500976 0.0038579938 0.0037645646 -0.0036387928
-0.0029946915 -0.008547587 0.008810855 0.007960268 -0.0025052808 -0.009212795 0.0019647498 -0.0071821124
-0.002596915 0.008079654 -0.0074520456 -0.010074091 0.0065470743 -0.0057343706 0.019792737 0.015257232
0.005348857 -0.018073682 -0.0012588432 -0.010038755 0.001166318 0.007904085 -0.010277675 0.013852908
-0.009589125 -0.0070882016 0.002944656 -0.0125093525 -0.0015704137 0.018042361 0.0046820203 -0.014305069
0.014590834 -0.012367815 -0.0030813373 -0.0031294234 0.014523804 -0.010936951 -0.0079441015 0.0071900575
0.019079423 -0.008199408 0.0008718581 -0.015623062 -0.0070972927 0.0005163083 -0.007916927 -0.0064862594
-0.009063266 0.003215104 0.010081673 -0.014530453 0.006798529 -0.0056576873 0.003786059 0.0046543577
-0.005925949 -0.014622248 0.0016934242 -0.008938452 -0.009726002 -0.008807475 -0.0049889684 0.014536122
0.0067656995 0.00042438717 -0.014726961 0.0007640656 -0.006916137 0.0015701702 -0.004298835 0.0053193877
-0.010691306 0.0058213887 0.008146756 0.0030108034 -0.005078668 -0.005207132 0.001678354 0.0019167637
0.0031476784 -0.017370088 0.01014276 0.0075282655 -0.0023858503 0.0043370626 0.008427254 0.012761538
-0.017212965 0.013309024 0.0068032267 0.0109944 0.00076340116 0.004565732 -0.00603888 0.01758576
-0.011047573 0.012111838 0.0030825578 0.021437503 0.00991696 -0.0036656316 -0.0035581351 -0.0017326406
0.0055386624 0.0013006394 0.0074627334 0.0062280553 -0.017423486 0.005805321 -0.006314506 -0.00800586
0.0019151587 0.008569474 -0.0094374595 -0.0014897042 0.0017366762 -0.0069621736 -0.008764005 -0.012919112
0.0073221074 0.011105965 0.015634881 0.0020649906 -0.019180035 0.00012797405 -0.017548691 -0.0021644766
-0.0024057096 0.009660577 0.007519527 0.0029413297 -0.0010624395 -0.0074687325 0.0029533028 0.0030991947
0.0025710256 -0.002026823 0.0039050938 0.014279427 0.0052385447 0.00587215 -0.009971927 0.0103792865
0.008243214 -0.003997174 -0.006534097 0.019126264 0.0014931152 0.0068253814 0.0041789855 0.0020228408
0.0026952075 0.009466191 0.006986694 -0.0077941567 -2.6792079e-05 -0.011247671 0.0023695617 -0.00019379552
0.0057938653 0.00084354327 -0.010319785 0.0014353715 -0.0055838474 -0.0011053529 -0.016061885 0.0035773236
0.0026887225 -0.003672018 0.0007295021 0.005358977 -0.0049901414 0.0024192298 0.006487557 -0.0049295095
-0.009980106 -0.0024498124 -0.016553668 -0.006658785 -0.00025465956 0.011744986 0.013195942 -0.0017876519
0.0007670211 0.019557614 0.01316144 0.009994636 -0.009551152 -0.008363181 -0.0039512157 -0.007992102
00000000: c723 81bb 0f38 233c 77c3 68bc 35af 56bb
00000010: 00b0 d2ba 1b14 653c 3fef 713b 5f1f 25bb
00000020: e036 ebbb 1332 82ba c837 0bbc 373b db3b
00000030: 1b1e d6ba 307b 05bc 4fd6 863c 2a0c 263c
00000040: 605c 7cbc b118 353a 41de 3abc 73c9 d0bc
00000050: 2350 623b 60ff 443c 609d f3bb e4cc 273c
00000060: 0aa5 44bc 8342 67ba a914 963a ce11 3ebc
00000070: 7a3a ed3b 5584 c0bb e792 4c3c 63db 1b3c
00000080: 2836 b23b 3f23 18b9 c51b 7b3c a7f8 d23b
00000090: 21b5 8b3b 231f 253b c783 853a 98ff 3a3c
000000a0: 8b6d 783c cfea 33bc 0b3b ff3a 7029 663a
000000b0: e09c ccbb 2fb8 833c 5dab 4ebc 469a a43c
000000c0: 0d79 eebb 32f4 82bb 17b3 803c 625e a9bb
000000d0: 7552 ddbb 2111 85bc 7c67 1abc c231 113c
000000e0: ea7c d73b a0d8 59bc 7fae 60bb c292 a33a
000000f0: 7feb 75bc 65d6 7c3b eab6 763b d078 6ebb
00000100: 9642 44bb 2e0b 0cbc 685b 103c c96b 023c
00000110: a32f 24bb 43f1 16bc 08c3 003b ed57 ebbb
00000120: 0131 2abb 8660 043c 4a30 f4bb cd0d 25bc
00000130: d788 d63b 63e7 bbbb 6124 a23c 78f9 793c
00000140: 7745 af3b 420f 94bc c5ff a4ba 9779 24bc
00000150: 23df 983a 2380 013c b263 28bc 4ff7 623c
00000160: b51b 1dbc 2544 e8bb 21fb 403b 07f4 4cbc
00000170: 57d6 cdba 93cd 933c a26b 993b cf5f 6abc
00000180: 650e 6f3c 60a2 4abc 43f0 49bb 0317 4dbb
00000190: 40f5 6d3c e630 33bc fa27 02bc 939a eb3b
000001a0: 734c 9c3c cf56 06bc 688d 643a dff7 7fbc
000001b0: 6890 e8bb dd58 073a 00b6 01bc b08a d4bb
000001c0: 187e 14bc 7fb4 523b 9a2d 253c 2311 6ebc
000001d0: 32c6 de3b 1f64 b9bb 881f 783b 9583 983b
000001e0: 772e c2bb 2792 6fbc e3f5 dd3a 9672 12bc
000001f0: cf59 1fbc 3a4d 10bc 807a a3bb ea28 6e3c
00000200: cdb2 dd3b 4880 de39 5a49 71bc 934b 483a
00000210: c3a0 e2bb 2bce cd3a 3edd 8cbb 424e ae3b
00000220: 962a 2fbc 59c1 be3b f979 053c e650 453b
00000230: f46a a6bb 97a0 aabb 37fc db3a eb3b fb3a
00000240: 4849 4e3b b74b 8ebc d22d 263c abaf f63b
00000250: ed5b 1cbb eb1d 8e3b 7712 0a3c c515 513c
00000260: 3402 8dbc 180e 5a3c 9aed de3b db21 343c
00000270: fc1e 483a 239c 953b cce1 c5bb 0310 903c
00000280: e100 35bc bb70 463c bd04 4a3b b49d af3c
00000290: bf7a 223c 183b 70bb 9a2f 69bb c519 e3ba
000002a0: ab7d b53b 377a aa3a f289 f43b b714 cc3b
000002b0: b3bb 8ebc 903a be3b eae9 cebb 032b 03bc
000002c0: 1006 fb3a fb66 0c3c 939f 1abc 2e42 c3ba
000002d0: 2fa1 e33a f222 e4bb e796 0fbc afaa 53bc
000002e0: 4aee ef3b cbf5 353c b914 803c cb54 073b
000002f0: 731f 9dbc c630 0639 46c2 8fbc e4d9 0dbb
00000300: 1ca9 1dbb 6647 1e3c 5d66 f63b 53c3 403b
00000310: 8e41 8bba 45bc f4bb 338c 413b dc1b 4b3b
00000320: a77e 283b 72d4 04bb 9aec 7f3b 42f4 693c
00000330: 19a8 ab3b 2a6b c03b 4b61 23bc e20d 2a3c
00000340: 8c0e 073c bafa 82bb fa1b d6bb afae 9c3c
00000350: a2b4 c33a 73a7 df3b dfef 883b a391 043b
00000360: 14a2 303b 1518 1b3c a3f0 e43b 2066 ffbb
00000370: 8dbf e0b7 2748 38bc a64a 1b3b 9735 4bb9
00000380: 77da bd3b 3b21 5d3a 5114 29bc 1323 bc3a
00000390: b5f8 b6bb 7de1 90ba 3794 83bc 8871 6a3b
000003a0: 4735 303b 3da6 70bb 0f3c 3f3a 5b9a af3b
000003b0: 5784 a3bb f18b 1e3b 9395 d43b b987 a1bb
000003c0: 9983 23bc 088d 20bb 8f9b 87bc f031 dabb
000003d0: d483 85b9 0b6e 403c cb33 583c a54f eaba
000003e0: ea11 493a 4a37 a03c 15a3 573c 8bc0 233c
000003f0: 6f7c 1cbc b905 09bc 3379 81bb 4ef1 02bc

action_model._discrete_distribution.branches.1.bias f4 [2]
0.0 0.0
00000000: 0000 0000 0000 0000

action_model._discrete_distribution.branches.2.weight f4 [1, 128]
-0.01441095 -0.016140763 0.011322149 0.00039841645 -0.005014772 -0.003977638 -0.001854089 6.6856264e-05
0.0006200053 0.011180112 -0.0020399245 0.012473433 -0.0030046373 0.017133024 -0.0016017847 -0.0050341785
-0.006726846 0.007118411 -0.013320738 -0.0050343587 -0.0029179878 -0.014067046 -0.009516986 -0.0024487593
0.002040087 0.001391328 0.00073033996 -0.008571967 -0.00027862095 0.0076138596 0.0045647006 0.007158688
0.007834129 -0.009889129 -0.0047143223 0.0034486428 -0.0021420047 -0.0013296129 0.0065795393 0.01205598
0.008120048 0.006098322 -0.0029082324 0.011469304 -0.011052023 -0.0006523095 -0.0038679265 0.0033115596
0.00396433 -0.008745683 -0.0007013565 -0.010327148 0.009295157 0.011022407 -0.01112424 -0.0039918534
-0.0018199834 0.002932484 -0.0002286081 -0.005755558 0.001530435 0.008906244 -0.002856971 -0.004622966
-0.009847806 -0.0010424851 -0.0006559738 -0.014704217 0.023095997 0.012579096 0.0016102608 0.0013186047
0.0027062742 0.008334968 -0.002524641 -0.008153885 -0.0004891329 0.013073889 -0.0043335566 -0.020758905
-0.0058945087 0.005064079 0.008034987 -0.007723643 0.008761236 0.0047559207 -0.009127541 0.0074236314
0.01553831 -0.004550622 -0.014104143 -0.007346415 -0.0030721002 0.009940031 0.008576392 -0.0011935661
-0.0020758405 0.012539426 -0.00026490653 0.016749952 -0.00010752872 0.0020387028 0.006564893 -0.0066734315
-0.0015757837 0.00043055284 -0.002612981 -0.00928973 0.011384646 -0.008949968 0.0044071525 0.0030746895
-0.018314756 0.0023790107 0.0047933874 0.0045737345 -0.006852679 0.010262947 -0.0039066183 -0.015755441
0.0061531723 -0.0035991257 -0.0042852336 0.009840648 0.013884979 -0.0043500084 0.0044500306 0.004297606
00000000: e81b 6cbc a239 84bc 8980 393c 8de2 d039
00000010: f552 a4bb d956 82bb e704 f3ba 2f35 8c38
00000020: da87 223a ca2c 373c 41b0 05bb 5f5d 4c3c
00000030: 73e9 44bb 8e5a 8c3c faf2 d1ba c0f5 a4bb
00000040: e06c dcbb 8f41 e93b 3a3f 5abc 43f7 a4bb
00000050: b63b 3fbb 7879 66bc 22ed 1bbc 5d7b 20bb
00000060: fbb2 053b 395d b63a 4974 3f3a 6f71 0cbc
00000070: df13 92b9 af7d f93b 7c93 953b 6d93 ea3b
00000080: b85a 003c 0306 22bc 9a7a 9abb a002 623b
00000090: e060 0cbb 6846 aeba 2d99 d73b 7286 453c
000000a0: f309 053c 6fd4 c73b 0b98 3ebb bfe9 3b3c
000000b0: 8b13 35bc c0ff 2aba 0a7d 7dbb c006 593b
000000c0: 36e7 813b 0e4a 0fbc 3ddb 37ba 3333 29bc
000000d0: b74a 183c 5397 343c 7242 36bc 18ce 82bb
000000e0: 828c eeba eb2e 403b 85b6 6fb9 1f99 bcbb
000000f0: e198 c83a 7feb 113c 053c 3bbb 407c 97bb
00000100: b158 21bc ffa3 88ba a8f5 2bba f5e9 70bc
00000110: d133 bd3c 8d18 4e3c 630f d33a 08d5 ac3a
00000120: bf5b 313b 648f 083c 7374 25bb df97 05bc
00000130: 2739 00ba dd33 563c 8200 8ebb 940e aabc
00000140: b926 c1bb 93f0 a53b 2ea5 033c 9d16 fdbb
00000150: 4a8b 0f3c 8ed7 9b3b af8b 15bc ef41 f33b
00000160: 6594 7e3c 621d 95bb 1015 67bc 32ba f0bb
00000170: 4a55 49bb 83db 223c ff83 0c3c 6f71 9cba
00000180: d30a 08bb 2a72 4d3c 27e3 8ab9 3237 893c
00000190: 0b81 e1b8 c29b 053b 501e d73b cdac dabb
000001a0: 878a ceba d3bb e139 8c3e 2bbb f433 18bc
000001b0: ab86 3a3c e3a2 12bc e069 903b bb80 493b
000001c0: d408 96bc 2de9 1b3b d911 9d3b 44df 953b
000001d0: 708c e0bb eb25 283c 1703 80bb 8e11 81bc
000001e0: 8da0 c93b 4fdf 6bbb 256b 8cbb ab3a 213c
000001f0: d37d 633c 848a 8ebb 90d1 913b efd2 8c3b

action_model._discrete_distribution.branches.3.weight f4 [1, 128]
-0.0020016802 -0.0093932 -0.0035743061 -0.00067864335 -0.006221693 -0.00037603977 -0.0021052572 0.0001657018
0.0015839096 0.004454014 -0.006412219 0.0036086943 0.010093971 0.013453305 0.016083524 0.00432948
-0.0029597755 -0.0033768583 -0.0020973494 0.0010208889 -0.007897901 -0.010966476 0.0035218017 0.0063674236
-0.0009672584 -0.008816048 -0.004587469 -0.010698891 0.002574833 -0.0022342475 0.0018969314 -0.004157239
-0.0034827385 -0.015949583 0.009418787 0.00567304 -0.010617743 0.0027651943 0.0064289058 0.0015923266
0.0072411434 0.01153805 -0.0045241057 0.007889368 0.0056156344 0.0017798769 0.0029345073 0.016057586
0.0036890002 0.002569515 -0.0050706305 0.0007050549 -0.013566881 -0.015466814 -0.0039811595 0.008084519
-0.01732576 -0.0006983856 -0.019509422 -0.002623256 -0.019148638 0.0020710381 -0.0007588257 -0.0033592049
-0.008115971 -0.011186208 0.0005771409 -0.0010626249 0.0067876587 0.00084741676 -0.0063221934 0.0059592207
-0.0035111215 -0.0031618737 0.0048114937 -0.014090419 -0.005645402 -0.006750919 -0.004868504 -0.012352578
0.0018378226 0.012301563 0.0017012432 0.0060496754 0.011109971 0.015878182 -0.014147957 -0.0038126183
-0.0016328961 -0.006370967 -0.0049589607 0.006256783 0.01444818 -0.008498018 -0.009396779 -0.003909895
-0.014898441 -0.0026049928 -0.0037670985 -0.00930967 0.00226323 -0.006587827 -0.014776743 0.015833618
-0.010491048 0.00033509836 0.0017315986 0.00587567 -0.0076693655 0.005334279 -0.0041380636 0.0030132455
0.0058026793 -0.0017234543 0.00013409338 -0.004122358 -0.011303083 -0.009602127 0.0056569497 0.008822595
0.015007451 0.0020183425 -0.0062152133 0.0049777213 -0.012923739 0.001226352 0.005716802 -0.004208963
00000000: 9f2e 03bb f0e5 19bc e83e 6abb fce6 31ba
00000010: 58df cbbb 3427 c5b9 5bf8 09bb 3dc0 2d39
00000020: 309b cf3a faf2 913b 971d d2bb d87f 6c3b
00000030: 2f61 253c 406b 5c3c 98c1 833c 50de 8d3b
00000040: cbf8 41bb 484e 5dbb af73 09bb 59cf 853a
00000050: 3366 01bc bcac 33bc 07ce 663b d2a5 d03b
00000060: 9d8f 7dba 2f71 10bc 7b52 96bb 674a 2fbc
00000070: 88be 283b 746c 12bb 75a2 f83a 7339 88bb
00000080: a83e 64bb b3a8 82bc 4251 1a3c e9e4 b93b
00000090: 0bf6 2dbc 4338 353b 92a9 d23b 9db5 d03a
000000a0: 1d47 ed3b 170a 3d3c f33e 94bb 6842 013c
000000b0: 5b03 b83b c24a e93a dd50 403b 338b 833c
000000c0: 27c3 713b 4f65 283b 8827 a6bb 6fd3 383a
000000d0: a047 5ebc 8568 7dbc 6374 82bb ee74 043c
000000e0: c1ee 8dbc dd13 37ba 39d2 9fbc efea 2bbb
000000f0: 9bdd 9cbc 41ba 073b eeeb 46ba 1b26 5cbb
00000100: daf8 04bc 5b46 37bc 454b 173a c647 8bba
00000110: 026b de3b 2d25 5e3a 672a cfbb 9145 c33b
00000120: d81a 66bb 7037 4fbb bca9 9d3b 80db 66bc
00000130: 10fd b8bb d036 ddbb f987 9fbb 7862 4abc
00000140: 18e3 f03a 7f8c 493c 40fc de3a 5b3c c63b
00000150: 9906 363c f612 823c d5cc 67bc 1fdd 79bb
00000160: e706 d6ba 8bc3 d0bb c77e a2bb b305 cd3b
00000170: 0fb8 6c3c 453b 0bbc f3f4 19bc 941e 80bb
00000180: 9718 74bc 87b8 2abb 6de1 76bb 9687 18bc
00000190: b352 143b b3de d7bb 271a 72bc 81b5 813c
000001a0: a5e2 2bbc 24b0 af39 cff6 e23a b188 c03b
000001b0: 4d4f fbbb 2dcb ae3b 9898 87bb df79 453b
000001c0: 6724 be3b 88e5 e1ba 6b9b 0c39 d814 87bb
000001d0: 9130 39bc 3d52 1dbc ef5d b93b a58c 103c
000001e0: d0e1 753c 2b46 043b fda8 cbbb 271c a33b
000001f0: 17be 53bc 8bbd a03a 0354 bb3b 57eb 89bb

action_model._discrete_distribution.branches.4.weight f4 [1, 128]
0.00093515246 0.0078092413 -0.013192047 -0.0053547136 0.020228585 -0.012872248 -0.01466979 0.008980162
-0.005835642 0.0013677174 0.009390524 -0.008812852 0.00035355723 -0.014434273 0.012318532 0.006211966
-0.0019215795 0.012736124 -0.0040778634 -0.0018192854 -0.006675494 -0.012794946 0.0045973887 -0.010125653
-0.009443452 0.0042034094 0.002564658 -0.0061757956 0.01002166 -0.017829975 -0.0042627202 -0.007802725
0.0107187675 0.005199759 -0.01447845 0.0030384492 -0.011611558 -0.008225049 0.00037495737 0.016453862
-0.005560552 0.014850505 0.0029917185 0.011533729 -0.0084884055 -0.0032238532 0.00638977 0.004084594
0.003213036 0.027678827 0.00092340534 -0.0054277047 -0.0013631935 0.012536413 -0.0056831134 0.008809696
0.004135029 -0.004835214 -0.005087407 -0.002720073 0.0026839678 -0.00048177596 0.0038445944 -0.0053743995
0.0009317036 -0.011893788 0.00896108 0.01896041 -0.004714978 0.0076680477 -0.003970661 0.008308356
-0.009362559 -0.0046949103 0.005456602 0.007824354 0.011499343 -0.010679662 0.008814211 0.016024048
0.009076344 0.0022393796 -0.006926242 -0.008609937 0.0036507181 -2.0276168e-06 0.005332804 -0.014092556
-0.0005318989 0.008915992 -0.0025828322 0.016616639 0.004238795 -0.008045315 0.0060751 -0.016627084
-0.0059600356 -0.005748348 0.007843535 -0.0029047092 0.0041543785 0.005493645 0.023545424 0.01330923
0.0021662228 0.013496441 0.005952354 -0.0066286544 -0.0021910933 0.0051100845 0.018751722 0.010057387
0.007862433 -0.0024772135 -0.0006185872 -0.021901838 -0.0033703074 -0.012700981 -0.0052375067 -0.008862439
-0.010274072 0.012252406 -0.017803153 0.013003494 0.0026237795 -0.0022847315 0.0087083625 -0.0066891382
00000000: 0525 753a aae4 ff3b 7523 58bc 9876 afbb
00000010: 6bb6 a53c 1fe6 52bc 8f59 70bc 8821 133c
00000020: ea38 bfbb fb44 b33a b6da 193c c863 10bc
00000030: a65d b939 bb7d 6cbc abd3 493c bf8d cb3b
00000040: 82dd fbba 2dab 503c 999f 85bb 1775 eeba
00000050: 1abe dabb e5a1 51bc b1a5 963b 11e6 25bc
00000060: b5b8 1abc c1bc 893b d213 283b 545e cabb
00000070: e331 243c 2b10 92bc 4aae 8bbb 00ae ffbb
00000080: c59d 2f3c bd62 aa3b 0537 6dbc b820 473b
00000090: 673e 3ebc 5bc2 06bc ed95 c439 40ca 863c
000000a0: 4a35 b6bb 884f 733c b510 443b f7f7 3c3c
000000b0: f412 0bbc 4847 53bb 4761 d13b 0fd8 853b
000000c0: cd91 523b b5be e23c af10 723a e3da b1bb
000000d0: 2fad b2ba 8765 4d3c 6939 babb 8b56 103c
000000e0: 237f 873b b770 9ebb 43b4 a6bb 4143 32bb
000000f0: 82e5 2f3b e096 fcb9 97f5 7b3b bb1b b0bb
00000100: 923d 743a 2ade 42bc 7ed1 123c dd52 9b3c
00000110: 1a80 9abb 3f44 fb3b 521c 82bb c51f 083c
00000120: 6b65 19bc c3d7 99bb 4ccd b23b b831 003c
00000130: be67 3c3c c0f9 2ebc 7b69 103c dd44 833c
00000140: f2b4 143c 8ec2 123b 87f5 e2bb b110 0dbc
00000150: e340 6f3b 3112 08b6 cdbe ae3b 77e4 66bc
00000160: 226f 0bba 6214 123c bc44 29bb 9e1f 883c
00000170: 97e5 8a3b 7fd0 03bc a211 c73b 8635 88bc
00000180: 674c c3bb a35c bcbb 2c82 003c ef5c 3ebb
00000190: 7421 883b 0904 b43b 55e2 c03c f50e 5a3c
000001a0: 30f7 0d3b 2d20 5d3c f70b c33b 2f35 d9bb
000001b0: 7298 0fbb 7f72 a73b 369d 993c bdc7 243c
000001c0: 6fd1 003c bf58 22bb af28 22ba 7c6b b3bc
000001d0: 60e0 5cbb c717 50bc 649f abbb c333 11bc
000001e0: 9554 28bc 51be 483c ebd7 91bc 9b0c 553c
000001f0: b7f3 2b3b 6fbb 15bb 85ad 0e3c 8f30 dbbb
