results/ppo/Fly/Fly-1280.pt (torch, 152203 bytes, 20 tensors)

discrete_act_size_vector f4 [1, 5]
00000000: 0000 0040 0000 0040 0000 803f 0000 803f
00000010: 0000 803f
2.0 2.0 1.0 1.0 1.0

network_body._body_endoder.seq_layers.0.weight f4 [128, 1]
00000000: ab19 313f 1ed9 1ebf 60ca 633f 164f ccbf
00000010: 7a20 9b3f a4e3 a8bf 5659 b6bf 5c88 e13f
00000020: b627 02bf 0fba 0840 2597 dfbe 9e5c 24be
00000030: 2e8d a13e c897 52bf a9b2 48bf 644b 3e3f
00000040: 1f40 c53f 538f 4ebf 8b0b 86be 488a a9be
00000050: 5761 b33e 4357 513f 433b 11c0 7fae 7b3f
00000060: d63d 893e a9c4 5fbf c0f1 ae3e 4c7b 353f
00000070: 234e 27be f245 983e d817 16be 3ddd 403f
00000080: 374b ac3f 34dc edbf de17 163e 75e7 453e
00000090: 92f9 cbbf e2a7 1c3f 8488 61bf 7b70 163e
000000a0: e11a bdbf 279b 843e 3f23 0cbf b761 213f
000000b0: dce9 8f3f e753 60bf 6a0f e03e fbb6 fabe
000000c0: 08d2 41bf 5f6f bcbe 29fa 903f b707 49bf
000000d0: baa7 86bd b33f b9bf c180 73bd c79a ddbf
000000e0: 551b a53e 433a a5bf 10fb 673f 00a1 063f
000000f0: 1881 f33e 995f a4be 4e0b 973f e592 a0bb
00000100: 69bd a6bf 2dc9 1cbf 32f5 473e 13d8 2abf
00000110: 4dcf 31bc 6d0f 753f 3fd8 37bf 32c7 93be
00000120: 47a1 0f3e 9d9c 483f 5788 423f 9075 b63d
00000130: b923 56bf 8756 363f 94db 34bf 801a 6abf
00000140: 30a8 97bf 6040 b4bd a65c 983f 4846 173f
00000150: 7fb9 63bd 746a 05c0 2b5e c93f 2a40 80bf
00000160: d8e5 3fbf 8f3d 98bf b068 5abd 61e2 fe3d
00000170: 150a e0bf e0af 77be e55b 0d3f d5ca f8be
00000180: 21af 42c0 12e5 77bf 882d 8d3f 258c 0540
00000190: 5105 f93e ff5a a23f a914 f43e 4051 ae3f
000001a0: 5eba cabf bd36 8f3f eb99 8e3f 982c d43e
000001b0: fefa c23e 7f22 42bf 3ef2 a13f 4835 1940
000001c0: 84b2 28bf c8f5 72be cede 123e 1cdb b63f
000001d0: 97e9 82bf fc81 b13e 88d6 bebf 3cdb 09c0
000001e0: c815 89be 3583 07c0 f963 b2bf ad43 313f
000001f0: a51f 47bf 2dec c1bf d4c0 5c3e cac4 5e3e
0.6917979 -0.62050045 0.88980675 -1.5961635 1.2119286 -1.319447 -1.4246013 1.7619739
-0.50841844 2.136356 -0.43670002 -0.16050956 0.31553024 -0.8226285 -0.78397614 0.74333787
1.5410193 -0.80687445 -0.26180682 -0.33113313 0.35035202 0.81773776 -2.269242 0.98313135
0.2680499 -0.87409455 0.34168816 0.7089126 -0.163384 0.29740864 -0.14657533 0.7533758
1.3460454 -1.8582826 0.14657542 0.19326575 -1.5935538 0.6119367 -0.8809893 0.14691345
-1.4773828 0.25899622 -0.5474128 0.63039726 1.1243243 -0.87628025 0.4376176 -0.48967728
-0.7571111 -0.3680372 1.1326343 -0.78527397 -0.0657496 -1.4472564 -0.05944896 -1.7312859
0.32247415 -1.2908405 0.90617466 0.52589417 0.47559428 -0.32104185 1.1800325 -0.0049003237
-1.3026553 -0.6124447 0.19527128 -0.66735953 -0.010852647 0.9572666 -0.7181434 -0.2886291
0.14026366 0.7836397 0.7598929 0.08909142 -0.8364826 0.7122578 -0.7064755 -0.91446686
-1.1848202 -0.08801341 1.1903274 0.59091616 -0.055596825 -2.0846224 1.5731863 -1.0019581
-0.7496009 -1.1893786 -0.053322494 0.12445522 -1.7503077 -0.24188185 0.55218345 -0.4859225
-3.041939 -0.9683391 1.102952 2.0866787 0.4863687 1.268402 0.47672012 1.3618546
-1.5838125 1.118858 1.1140722 0.41440272 0.38082117 -0.75833887 1.2652051 2.393877
-0.65897393 -0.2372657 0.14342806 1.4285617 -1.0227536 0.34669483 -1.490922 -2.154006
-0.2677443 -2.1173832 -1.3936759 0.6924389 -0.7778266 -1.51502 0.21557933 0.21754757

network_body._body_endoder.seq_layers.0.bias f4 [128]
00000000: 0000 0000 0000 0000 0000 0000 0000 0000
00000010: 0000 0000 0000 0000 0000 0000 0000 0000
00000020: 0000 0000 0000 0000 0000 0000 0000 0000
00000030: 0000 0000 0000 0000 0000 0000 0000 0000
00000040: 0000 0000 0000 0000 0000 0000 0000 0000
00000050: 0000 0000 0000 0000 0000 0000 0000 0000
00000060: 0000 0000 0000 0000 0000 0000 0000 0000
00000070: 0000 0000 0000 0000 0000 0000 0000 0000
00000080: 0000 0000 0000 0000 0000 0000 0000 0000
00000090: 0000 0000 0000 0000 0000 0000 0000 0000
000000a0: 0000 0000 0000 0000 0000 0000 0000 0000
000000b0: 0000 0000 0000 0000 0000 0000 0000 0000
000000c0: 0000 0000 0000 0000 0000 0000 0000 0000
000000d0: 0000 0000 0000 0000 0000 0000 0000 0000
000000e0: 0000 0000 0000 0000 0000 0000 0000 0000
000000f0: 0000 0000 0000 0000 0000 0000 0000 0000
00000100: 0000 0000 0000 0000 0000 0000 0000 0000
00000110: 0000 0000 0000 0000 0000 0000 0000 0000
00000120: 0000 0000 0000 0000 0000 0000 0000 0000
00000130: 0000 0000 0000 0000 0000 0000 0000 0000
00000140: 0000 0000 0000 0000 0000 0000 0000 0000
00000150: 0000 0000 0000 0000 0000 0000 0000 0000
00000160: 0000 0000 0000 0000 0000 0000 0000 0000
00000170: 0000 0000 0000 0000 0000 0000 0000 0000
00000180: 0000 0000 0000 0000 0000 0000 0000 0000
00000190: 0000 0000 0000 0000 0000 0000 0000 0000
000001a0: 0000 0000 0000 0000 0000 0000 0000 0000
000001b0: 0000 0000 0000 0000 0000 0000 0000 0000
000001c0: 0000 0000 0000 0000 0000 0000 0000 0000
000001d0: 0000 0000 0000 0000 0000 0000 0000 0000
000001e0: 0000 0000 0000 0000 0000 0000 0000 0000
000001f0: 0000 0000 0000 0000 0000 0000 0000 0000
0.0 0.0 0.0 0.0 0.0 0.0 0.0 0.0
0.0 0.0 0.0 0.0 0.0 0.0 0.0 0.0
0.0 0.0 0.0 0.0 0.0 0.0 0.0 0.0
0.0 0.0 0.0 0.0 0.0 0.0 0.0 0.0
0.0 0.0 0.0 0.0 0.0 0.0 0.0 0.0
0.0 0.0 0.0 0.0 0.0 0.0 0.0 0.0
0.0 0.0 0.0 0.0 0.0 0.0 0.0 0.0
0.0 0.0 0.0 0.0 0.0 0.0 0.0 0.0
0.0 0.0 0.0 0.0 0.0 0.0 0.0 0.0
0.0 0.0 0.0 0.0 0.0 0.0 0.0 0.0
0.0 0.0 0.0 0.0 0.0 0.0 0.0 0.0
0.0 0.0 0.0 0.0 0.0 0.0 0.0 0.0
0.0 0.0 0.0 0.0 0.0 0.0 0.0 0.0
0.0 0.0 0.0 0.0 0.0 0.0 0.0 0.0
0.0 0.0 0.0 0.0 0.0 0.0 0.0 0.0
0.0 0.0 0.0 0.0 0.0 0.0 0.0 0.0

network_body._body_endoder.seq_layers.2.weight f4 [128, 128]
00000000: ab17 843d b5d3 073e 05f0 25bd 6327 1dbe
00000010: 260f 2cbe 1b3e 7ebd 42d5 44be b760 a1bd
00000020: 9404 98bc bc88 f2bc edb7 f0bd 7009 52bd
00000030: d87a 9d3d 858a c8bd 2e84 99bd ad02 083d
00000040: c108 413c faf3 0b3e 1db1 093d 98e4 8bbc
00000050: 0920 9a3d 5f81 2cbe 3bbd f8bc ddfe 313e
00000060: 5132 df3d c27e fa3c 62e6 843d 1945 ca3d
00000070: 3cd3 11bd adc2 333d a48f c23d ad4e 44bd
00000080: 0321 d93c 3415 bf3d 8892 013d d83f 733d
00000090: c7f7 44bd 4cc2 9f3d a6c8 3bbe 0678 b03d
000000a0: 371a 45be 6a4e e9bc 523e 8abb 7248 1e3e
000000b0: 4fcb d53c 40ac 693d 8ac2 403d 6ea5 5b3c
000000c0: 1704 af3d 2833 9cbd f877 c33d 48a4 cdbc
000000d0: 8ede 92bd b7f6 7b3c b01c 5fbd 101f 2e3e
000000e0: 7957 fc3d 4ea1 95bb 1966 b6bd acf4 023e
000000f0: 77e8 2cbd 129e 12bd 16ba 073c d213 df3d
00000100: 9a3f bdbd dfd5 d6bd a9e8 f5bc 4a75 d8b9
00000110: 400f 13be a6e2 683d 1c95 053d fa40 313d
00000120: 9266 493d b6ba 0e3e 75d3 263d 5698 7f3d
00000130: d998 ee3c 5225 723c 4482 9fbd 2f41 1abc
00000140: b329 3c3d 9b6c c63d a01c 89bd c873 343d
00000150: d04e 11be 77c8 e1bd 81ba a3bd f487 83bd
00000160: e9ab ccbd 826b acbc 4850 d9bd 6a66 a1bd
00000170: 897e 4e3e f2b5 0abe 964c 473c 4875 f63d
00000180: 14f0 363e 27ed cf3d dafc 093d 48b8 553d
00000190: 79c7 a7bd 007b 68be bf94 00be 4fb6 003c
000001a0: 2af8 0c3e 630d ac3c 59ba 5d3e 8cf0 c7bd
000001b0: a637 eb3c 2edd a23d 6e54 32bd 4c30 54bd
000001c0: 047b 4f3e a531 1f3e 133b d0bd d392 14bc
000001d0: 58da b23d f867 10bd 31b5 333d 1600 91bc
000001e0: 4310 efbc 39cb 41bd 7da2 5abd 9a82 103d
000001f0: 6921 4a3d b9a6 213d c8c1 c1bc 4667 68be
00000200: 5a5c 9dbd 32fc b03d 7c49 0b3e 747d e53c
00000210: 2158 4fbd f39c 2f3d 28f6 8dbc b450 863d
00000220: 281a 2d3d 5799 633d 2a15 08be 00a7 9abc
00000230: 54b3 2fbc efc7 ee3c 5341 113c 8275 f8bc
00000240: fae7 743d f186 f9bc 3c8a dcbd 0b71 66be
00000250: 4c44 d2bd 18cd af3c f948 c0bd dfa2 0abd
00000260: d166 8e3c 19da 993d faf5 c33b bbe1 fb3d
00000270: 2c01 b6bd 3cc9 e8bd 212b 5fbe 6bdf 783d
00000280: 5fe0 34bc 6ef2 963d 3e81 6a39 a164 f63a
00000290: eb0c 96bb 2ba5 323d 9ac2 0a3d d545 8d3d
000002a0: 2840 533d 7e65 39bb 5158 1b3d 7d52 9d3d
000002b0: 9703 263d 5ff5 de3b 0d0e bc3d fe29 303e
000002c0: 894a 3f3e c8d5 95bd a412 f83d ffa9 0f3e
000002d0: 1e02 2dbc 1c99 c3bd 75f9 f03b c4c1 9c3d
000002e0: acc2 ba3d a9a1 acbd 20e1 b9bd 26bf fc3c
000002f0: d5da 1139 dd3f 133e e4aa 0bbe 9d38 373c
00000300: bbc4 633e 184f 323c fd0b 4f3e ee3b 5a3d
00000310: 779f e5bd baa0 41bd 194e 483e d083 13be
00000320: 1886 c0bd ab5d d73b dc55 943d eee0 29bd
00000330: 48ae 2d3d 3c15 0fbe c185 76bd f4b0 81bd
00000340: 80c8 1b3e db50 6b3c 5cd3 24be d45d 373d
00000350: b59d 883d eedf 1cbb e745 d23c afb2 b43d
00000360: fc67 323c cefe 7db9 d86b cebd 8577 153e
00000370: bd45 35bc c8b1 9e3d b672 3cbd da49 e83d
00000380: b1b3 ac3b 4229 1c3d 6f5c f7bd f9a7 16be
00000390: 695a cc3b 4e44 fc3d fa46 d03c b12e bc3d
000003a0: 1367 e4bd 52e0 233e b52d 9c3c 5d1b a6bc
000003b0: 3ab0 9e3c 76af 733d 4be8 af3d 9b01 7bbc
000003c0: 52fc 433c 6d99 1cbd 96d2 80bd 4a0f 2fbe
000003d0: b3db 43be 4e41 b23d 3126 d03c 80f2 64be
000003e0: 2e40 c33d 27b7 9f3d 50f6 e73d 8fb3 be3d
000003f0: 40a5 8dbd 11b5 e5bd 7b20 bdbd 23ca 983d
0.06449827 0.13264354 -0.040512104 -0.15347056 -0.16802654 -0.062070947 -0.19221976 -0.07879775
-0.01855687 -0.029606216 -0.11753831 -0.05127853 0.07689446 -0.097920455 -0.074959144 0.033205677
0.011781872 0.13667288 0.033616174 -0.017076775 0.075256415 -0.16846226 -0.03036367 0.17382379
0.10898269 0.030578021 0.064892545 0.098764606 -0.03560184 0.04388683 0.095000535 -0.047926594
0.026504999 0.09330216 0.031633884 0.059387058 -0.04808786 0.07800731 -0.1833826 0.08616643
-0.19248281 -0.028479774 -0.004218855 0.15457323 0.026097922 0.057049036 0.047060527 0.013406141
0.08545702 -0.07626945 0.095443666 -0.02510275 -0.07171355 0.015378646 -0.054470718 0.17004037
0.123213716 -0.004566348 -0.08906192 0.12788647 -0.042213883 -0.03579528 0.008284112 0.10892452
-0.09240647 -0.104900114 -0.030018168 -0.00041286118 -0.14361286 0.056856774 0.032612905 0.043274857
0.049170084 0.13938412 0.040729005 0.06240114 0.029125618 0.014779406 -0.07788518 -0.009414955
0.045938205 0.096886836 -0.06694913 0.04405573 -0.14190221 -0.11024564 -0.07994557 -0.064224154
-0.09993727 -0.021047357 -0.106110156 -0.07880862 0.20165457 -0.13545969 0.012164256 0.120340884
0.1786502 0.10152655 0.033688404 0.052177697 -0.08192343 -0.22703171 -0.12556742 0.007855966
0.13766542 0.021002477 0.21653117 -0.097626776 0.028713059 0.07952343 -0.04353755 -0.051803872
0.2026177 0.15546282 -0.101675175 -0.009068209 0.08733052 -0.035255402 0.04387397 -0.017700236
-0.029182559 -0.04731295 -0.053377617 0.0352808 0.04934827 0.03946564 -0.023651972 -0.22695646
-0.0768363 0.086418524 0.13602251 0.028013922 -0.050621156 0.042874288 -0.01732929 0.06558362
0.042261273 0.05556616 -0.13289323 -0.01887846 -0.0107239075 0.02914807 0.008865672 -0.03032947
0.059791543 -0.030459853 -0.107685536 -0.2250406 -0.10266933 0.021460101 -0.093889184 -0.033846732
0.017383011 0.07512302 0.0059802504 0.12298914 -0.08886942 -0.113665074 -0.21793796 0.060759943
-0.011039822 0.073704585 0.00022364125 0.00187983 -0.0045791767 0.043614548 0.033876993 0.06898085
0.051574856 -0.0028289254 0.037926022 0.07681749 0.040530767 0.006804153 0.091823675 0.17203519
0.18680777 -0.07316166 0.121129304 0.14029692 -0.010559587 -0.09550688 0.0073539563 0.07654145
0.09119162 -0.08429272 -0.09076142 0.030852865 0.00013909799 0.1437983 -0.13639408 0.011182931
0.22243015 0.010883115 0.20219417 0.05327981 -0.11212056 -0.04727242 0.19561042 -0.14405751
-0.09400576 0.0065724454 0.07242939 -0.041474275 0.042402536 -0.13972944 -0.06018615 -0.06332579
0.15213203 0.014362539 -0.16096252 0.044767216 0.06670705 -0.0023937183 0.025668098 0.08823144
0.01088905 -0.00024222882 -0.10079163 0.14596374 -0.01106399 0.07748753 -0.046007834 0.11342211
0.0052704443 0.038125284 -0.12078177 -0.14712514 0.0062363637 0.123177156 0.02542447 0.09188593
-0.11152472 0.1600354 0.019064764 -0.02027672 0.01937114 0.059493504 0.08589228 -0.015320207
0.011962013 -0.038232256 -0.06290166 -0.17095676 -0.19126777 0.08703862 0.025408836 -0.22358131
0.09533726 0.077986054 0.11326277 0.09311592 -0.069162846 -0.11216176 -0.09234711 0.074604295

network_body._body_endoder.seq_layers.2.bias f4 [128]
00000000: 0000 0000 0000 0000 0000 0000 0000 0000
00000010: 0000 0000 0000 0000 0000 0000 0000 0000
00000020: 0000 0000 0000 0000 0000 0000 0000 0000
00000030: 0000 0000 0000 0000 0000 0000 0000 0000
00000040: 0000 0000 0000 0000 0000 0000 0000 0000
00000050: 0000 0000 0000 0000 0000 0000 0000 0000
00000060: 0000 0000 0000 0000 0000 0000 0000 0000
00000070: 0000 0000 0000 0000 0000 0000 0000 0000
00000080: 0000 0000 0000 0000 0000 0000 0000 0000
00000090: 0000 0000 0000 0000 0000 0000 0000 0000
000000a0: 0000 0000 0000 0000 0000 0000 0000 0000
000000b0: 0000 0000 0000 0000 0000 0000 0000 0000
000000c0: 0000 0000 0000 0000 0000 0000 0000 0000
000000d0: 0000 0000 0000 0000 0000 0000 0000 0000
000000e0: 0000 0000 0000 0000 0000 0000 0000 0000
000000f0: 0000 0000 0000 0000 0000 0000 0000 0000
00000100: 0000 0000 0000 0000 0000 0000 0000 0000
00000110: 0000 0000 0000 0000 0000 0000 0000 0000
00000120: 0000 0000 0000 0000 0000 0000 0000 0000
00000130: 0000 0000 0000 0000 0000 0000 0000 0000
00000140: 0000 0000 0000 0000 0000 0000 0000 0000
00000150: 0000 0000 0000 0000 0000 0000 0000 0000
00000160: 0000 0000 0000 0000 0000 0000 0000 0000
00000170: 0000 0000 0000 0000 0000 0000 0000 0000
00000180: 0000 0000 0000 0000 0000 0000 0000 0000
00000190: 0000 0000 0000 0000 0000 0000 0000 0000
000001a0: 0000 0000 0000 0000 0000 0000 0000 0000
000001b0: 0000 0000 0000 0000 0000 0000 0000 0000
000001c0: 0000 0000 0000 0000 0000 0000 0000 0000
000001d0: 0000 0000 0000 0000 0000 0000 0000 0000
000001e0: 0000 0000 0000 0000 0000 0000 0000 0000
000001f0: 0000 0000 0000 0000 0000 0000 0000 0000
0.0 0.0 0.0 0.0 0.0 0.0 0.0 0.0
0.0 0.0 0.0 0.0 0.0 0.0 0.0 0.0
0.0 0.0 0.0 0.0 0.0 0.0 0.0 0.0
0.0 0.0 0.0 0.0 0.0 0.0 0.0 0.0
0.0 0.0 0.0 0.0 0.0 0.0 0.0 0.0
0.0 0.0 0.0 0.0 0.0 0.0 0.0 0.0
0.0 0.0 0.0 0.0 0.0 0.0 0.0 0.0
0.0 0.0 0.0 0.0 0.0 0.0 0.0 0.0
0.0 0.0 0.0 0.0 0.0 0.0 0.0 0.0
0.0 0.0 0.0 0.0 0.0 0.0 0.0 0.0
0.0 0.0 0.0 0.0 0.0 0.0 0.0 0.0
0.0 0.0 0.0 0.0 0.0 0.0 0.0 0.0
0.0 0.0 0.0 0.0 0.0 0.0 0.0 0.0
0.0 0.0 0.0 0.0 0.0 0.0 0.0 0.0
0.0 0.0 0.0 0.0 0.0 0.0 0.0 0.0
0.0 0.0 0.0 0.0 0.0 0.0 0.0 0.0

action_model._continuous_distribution.log_sigma f4 [1, 4]
00000000: 0000 0000 0000 0000 0000 0000 0000 0000
0.0 0.0 0.0 0.0

action_model._continuous_distribution.mu.weight f4 [4, 128]
00000000: 8514 d3bc a4b0 433c 0ce1 94bc d7f9 a83c
00000010: 5aac 0c3d b850 fabb 14c7 343b 76cc 34bc
00000020: 8b58 0c3c ab71 55bc 507d 9e3c abc4 f53c
00000030: f462 1b3d 7944 27bc d81d 81bc eb13 d2bc
00000040: 3a42 c33c 6105 11bd 3f74 67bc 0508 56bc
00000050: a2e3 1ebb 9d89 863c ffb2 f4bc a356 50bc
00000060: 3577 dabc 7dc6 913c 1d4b f7bc e0ae 7fbc
00000070: 6be2 96b9 34f8 a13b 2dff a03b 7813 afbb
00000080: 1f5e 82bc b882 e0bc 7369 bbbc 9530 ce38
00000090: 8345 87bc b759 50bc 5ff2 56bc 52b2 1ebd
000000a0: 779a 22bc 0d84 28bd 050a 5dbc e38d 663b
000000b0: 55bc acbb bc3a 453b 753f dfbb 25c9 603c
000000c0: ed03 803c 626b 58bc 1892 6abc f230 d63c
000000d0: c065 bbba 7c0e a33b c474 263c d5eb 78bc
000000e0: 0f21 bcbc c5bf 433a 1186 383c 23cf 013c
000000f0: f384 adbb 2992 153c f6ad 283d 57d9 f33b
00000100: 9b40 533a ddb2 1abc 0455 bbbb 6ea1 80bb
00000110: b7ff 7d3c 9739 d33c 0d54 febb 7d5b df3c
00000120: 97fa 37bc e3d8 723c 7fd1 c5bb 0b43 8f3c
00000130: 7286 3d3b d312 d73b db2e c7b9 c79e 4ebc
00000140: cb91 a53c bffa 86bb 161f 8c3b 03d2 00bc
00000150: 9551 41bc 0600 48bc f066 a83c da6d 0d3d
00000160: 394f 203c 2b78 443c e5e8 36bc 1909 bdbb
00000170: 9da0 133d b32b 973c 37e9 043d 5456 843c
00000180: 23a1 a6bc 7086 3a3c f99a 8fbc 7297 843b
00000190: 485a 94bc 9b2b 0cbd 3c07 a6bc 6a26 94bc
000001a0: e9fd 0d3c 9146 153d 2701 243c 21e3 23bc
000001b0: 6fef f7bc faac de3c 8879 4ebc a352 263d
000001c0: 503a 983c 4d66 5e3c ef0e 75b9 8205 3abb
000001d0: f543 d53b d037 9a39 80c7 6f3a d7ca a53b
000001e0: 5d9c 9f3b 40fe fcba 6df6 783b 6b08 af3b
000001f0: 4820 a73c 5724 07bb 01e5 c3bc 47d1 1dbc
00000200: f79d d33b 2ea8 443c 8b6d 773c 5c79 92ba
00000210: 77a2 6f3c cdfb 1cbc d7ed 20bb d08e 8fbc
00000220: 3f81 d7bc ac49 b83c 1757 acbc 98e5 f9bb
00000230: 6743 223c 290d b03b b061 a3bb c2ae 52bb
00000240: 2a50 b6bb 80e6 dabc b1d2 a7bb 7239 8dbc
00000250: 4096 ab3c 5b63 1b3c 4326 6ebc ad5f 1f3c
00000260: 0bab dfbc 2aa0 e3ba 2a8c 9e3a af0a 6838
00000270: a466 87bc bb19 68bc 0d64 823c 17c7 f2bb
00000280: 6a71 ff3b c36c b9bc 09f3 9ebb 3bd5 033d
00000290: 7a6c 283c a2a6 8a3c 7fda b23b d347 99bc
000002a0: f295 563a 22d4 d4bb 773e cb3c feee bd3c
000002b0: 0f2d 1f3b 60b7 ea3c 73dc 7ebb 542f 9f3b
000002c0: c3dd fe3c a752 b73b b943 453c efa1 a6bb
000002d0: c516 e6bb 1d83 b9bc f6c5 153d c350 643c
000002e0: 6760 263d cdf1 4c3b 33d3 21bd da13 4ebc
000002f0: 7cc6 9bbc a498 1dbc f3b0 01bc d83b 763a
00000300: e72b 46bc 421f 0d3a 8077 203b ff89 3d3d
00000310: b077 1f3c 6125 a5bc 6ffc 15bd 2a4c 803c
00000320: 3fbf c23c ffc7 783c d7ee b13c 0fbd 223d
00000330: 88b9 ba3c f3a9 5bbc 5079 68bc 0aed 5cba
00000340: 9a18 efbc 177c 60bb dbef 7a3b 4bdb cfbb
00000350: bfaf 8a3c a266 493c 874a 313c 036b 90bc
00000360: 170e bc3a 4c54 a43c 2a62 30bb 48fa 893c
00000370: 8bf6 68bc 576d a4bb ff4d b4bc 9b78 1f3d
00000380: 4a8c 8cbc 0bfb cebb 5ff8 9e3c f9b7 243c
00000390: 2bb7 de3b bf71 d338 ba7e a0bb 296a c2bc
000003a0: 0bec f13b f58b d43c 3d0b e93c 75c6 2d3c
000003b0: c7a5 19bc e326 273c 067f ca3c b3fd 18bd
000003c0: abd5 183c 2b4a c6ba e8ca 1bbb bbe6 41bc
000003d0: 00b2 8cbc 8f87 ac3b 9705 af3c 6c04 843c
000003e0: 8293 5a3c 83c2 b7bc fa41 ad3c 939f 75bc
000003f0: a532 133d 46c3 01bd cb61 d6bc b5ab 66bc
-0.02576662 0.01194397 -0.018173717 0.020626945 0.034344055 -0.007639017 0.002758448 -0.011035075
0.008566032 -0.013027589 0.019346863 0.030001005 0.037936166 -0.010209196 -0.0157613 -0.025644263
0.02383529 -0.03540552 -0.014126836 -0.013063435 -0.0024244566 0.016423041 -0.029870508 -0.012715968
-0.02666817 0.017794842 -0.030187184 -0.015605658 -0.00028778924 0.004942918 0.004913232 -0.005342897
-0.015914021 -0.027406082 -0.02287743 9.8318946e-05 -0.016512638 -0.012716702 -0.013119309 -0.03874428
-0.009924523 -0.04114156 -0.013491158 0.0035179786 -0.0052714744 0.0030094823 -0.0068129846 0.013719832
0.015626872 -0.013209196 -0.014317058 0.026146386 -0.0014297292 0.004976092 0.010159675 -0.0151929455
-0.022964982 0.00074672356 0.011262433 0.00792292 -0.00529539 0.009129086 0.041181527 0.0074416804
0.0008058638 -0.009442058 -0.0057169218 -0.003925494 0.015502862 0.025784297 -0.0077614845 0.027265305
-0.011229179 0.014822218 -0.006036937 0.017488023 0.0028919247 0.0065635233 -0.00037991148 -0.012611098
0.020211121 -0.0041192467 0.0042761667 -0.007862571 -0.011799236 -0.012207037 0.020556897 0.03452859
0.009784513 0.011991541 -0.011163925 -0.005768907 0.036041845 0.018453455 0.032448974 0.016154446
-0.020340508 0.011384591 -0.017529951 0.004046374 -0.018109456 -0.034221273 -0.020267121 -0.018084724
0.008666494 0.03644425 0.01001004 -0.010002882 -0.030265538 0.027182091 -0.0126022175 0.040606152
0.018582493 0.013574195 -0.00023370584 -0.002838463 0.0065083453 0.00029414752 0.0009146854 0.005059581
0.004870935 -0.0019301847 0.0037988678 0.0053415797 0.020401135 -0.0020621025 -0.023912909 -0.009632415
0.00645804 0.012002988 0.015101801 -0.0011175084 0.014626137 -0.009581518 -0.0024555826 -0.017524153
-0.026306747 0.022496067 -0.021037621 -0.0076262467 0.009903765 0.0053726626 -0.0049860105 -0.003214762
-0.0055637555 -0.02672124 -0.005121552 -0.017239306 0.020945668 0.009484137 -0.0145354895 0.009727401
-0.02730324 -0.0017366458 0.0012096216 5.532306e-05 -0.016528435 -0.014166291 0.015916849 -0.0074089873
0.0077955024 -0.02263487 -0.0048507494 0.032185774 0.010279769 0.01692516 0.0054581757 -0.018711006
0.0008185796 -0.0064950148 0.024810059 0.02318525 0.0024288332 0.028651893 -0.0038888722 0.004857937
0.031111604 0.0055945697 0.012040072 -0.005085222 -0.0070217573 -0.022645527 0.036565743 0.013935271
0.04061928 0.0031272054 -0.039508056 -0.012577975 -0.019015543 -0.009618912 -0.007915723 0.00093930727
-0.012095428 0.0005383381 0.002448529 0.04627418 0.009733126 -0.020159425 -0.036617693 0.015661318
0.023772834 0.015184402 0.021720333 0.03973108 0.022793546 -0.013407218 -0.014189079 -0.00084276556
-0.029186536 -0.003425365 0.0038289938 -0.0063432804 0.016929505 0.012292536 0.010820991 -0.017629152
0.0014347461 0.020059727 -0.002691398 0.016842976 -0.014218937 -0.005017917 -0.022009848 0.038933378
-0.017156739 -0.0063165477 0.019405542 0.010053628 0.0067967377 0.00010082451 -0.0048979195 -0.023732262
0.007382875 0.025945643 0.028447742 0.010606398 -0.009377903 0.010202142 0.024718773 -0.03735132
0.009328286 -0.0015128305 -0.0023772065 -0.011834796 -0.01717472 0.0052651833 0.02136497 0.01611539
0.013340833 -0.022431618 0.021149624 -0.014991659 0.03593697 -0.031680368 -0.026169678 -0.014079024

action_model._continuous_distribution.mu.bias f4 [4]
00000000: 0000 0000 0000 0000 0000 0000 0000 0000
0.0 0.0 0.0 0.0

action_model._discrete_distribution.branches.0.weight f4 [2, 128]
00000000: 4023 4f3c a326 89bc c189 aeba d87a 7bbb
00000010: bd97 613c bf8e 863c 546b 963b f87d e4bb
00000020: 97ff e43b 006f d03b 1748 98bb 83c2 0fbc
00000030: 0b2a 943c 235c 9a3b 9750 a63b 8f91 3fbb
00000040: 5c5c bcb9 2de2 f73a 2b44 15bc 56b6 803a
00000050: 1b80 ea3b 700b 94bc c538 733c ac33 953b
00000060: 1d17 ce3b 0604 203c 63da 2dbc 15dd fcbb
00000070: 3fd5 68bb 8818 5ebb 9ca1 193c 1b77 0c3c
00000080: 307c 32bb fbdd 88bb 1232 75bb 1f98 113c
00000090: a798 59bc 539d 69bb 6b88 c4bb 1765 b4bb
000000a0: 08f6 f53b e2a4 e23b 0301 6c3c b4af 883b
000000b0: fc11 493b 26d2 9fbc 88d5 073b 42c6 8b3b
000000c0: d5bf a93a f3a0 3c3a 8d1e ddba 0819 ebbb
000000d0: 8792 1a3b 90a0 033c 6dcd ddba 0b56 8c3c
000000e0: be35 b3bb 9e62 92bb 253a ef3b fb2d bf3b
000000f0: a7b2 c63b 840e b3b8 886e 2cbb f8ce ad3b
00000100: 42bf f33b 93d2 2aba ed2b 95bb 50bf cbba
00000110: 7e89 9bbb 110f 4a3c 6311 d53b d3ed 5fbc
00000120: 9917 b3bb 56e5 ae3b ff95 75bb ed2b 993b
00000130: 37d0 9abc 7591 2abc a6da 48bc 8a73 e13b
00000140: fb5d f5ba 57bb 3dbb 68cd babb 3538 a8b9
00000150: 20a2 dcbc 87aa f6bb 6b8c 1e3c 7bb1 393c
00000160: 9857 a8ba 8af8 5ebc 9e3a 0cbb 30f5 1d3b
00000170: a67d 42bb f279 793a 97e5 cb3a 52d5 d9bb
00000180: 0fb5 e5bb 81c5 b43b 627c 33bc 6e0f 353b
00000190: bf3a f8ba 75ed 933b ee11 4a3c 2dc4 de3b
000001a0: 1049 ca3b 0a31 293b 8ab6 643b 9c39 b63c
000001b0: d0ec f8ba dd5b 35bc 9d2d 14bc 105d 7fbb
000001c0: 8f34 dbbb 0713 003c 9b0a 23bc cd0a a2bb
000001d0: 87f3 b33a 4888 95bc f7ca 633c 7a65 f2bb
000001e0: f950 94bb 6ae6 1d3c 929b d2ba d332 8ebb
000001f0: 6b06 b5bb 2be9 63b9 dfd4 7cbb 5be6 543b
00000200: 72cb 033b 5641 0a3c 9fa9 a13b ff29 a0bb
00000210: 4386 57bc 65ff 84bb b7ac 74bc 1ce3 213c
00000220: 7383 9abb 406e 3f3b 152d 863c f0dd b53a
00000230: 12ff f4bb c2f6 373a d811 4ebc 211b 2d3c
00000240: 620c abbb df33 5fbc df6c 94bb 7eef 333b
00000250: be95 81bb eaf4 bcbc 1288 823c 0da8 c438
00000260: bad0 d0bb 65c0 1a3c 5b14 7f3a fc3a 363b
00000270: b01c 12bb e8d3 5abb 114f 23bb 48d3 503b
00000280: 888e afbb d4d3 823b af16 7bbc 4fc4 52bc
00000290: 0975 95bb faa2 a5ba 72f7 23bc f60b 493c
000002a0: ad4c a7bb dad6 45ba 13ad c1bb eca0 123c
000002b0: 7d1f 5cbb 771e a3bb dada 143c 5b36 b13b
000002c0: 4db1 7eba 384a f73b 7e95 b9bb 81be 84bc
000002d0: 3838 abbb 531f 703b e3aa 593b 596e 223b
000002e0: abc3 fa3b df4d cdbb d8f1 96bb 0a6c ab3b
000002f0: f8d9 583c 4424 0fbc 3894 ab3b c50f 6ebc
00000300: 3af3 fe3b 7483 2cbc 0a01 7d3c 1f1f 49bb
00000310: b030 c4ba 63dd d539 b367 c5ba 176c 20bc
00000320: 440f 3fba 4bb6 493a 8279 a0bc 40a9 5e3b
00000330: 8085 70bb 7759 823c 4716 1c3b 740f 16bc
00000340: f77f 93bc cb24 e5bb b6a5 c6bc 33ee 2bbc
00000350: 2762 9cbb 03e2 1f3c 9ff5 063a 005c e63b
00000360: 2e60 ccbb 1bbc 003a 137b 293c c31e 493c
00000370: ffac 0f3b 3e65 143c f7d1 493a 0b91 90bc
00000380: 6bb0 76bc 136f 1d3c 8df5 313a cfd6 043c
00000390: 6d09 febb bb16 2c3c 9f8a cd3b ad3e f63b
000003a0: be4f b9bb cd16 d3b8 f8ef 0cbc 5bb5 afbb
000003b0: 03fd 0abb 37d4 13bc 37f3 373c efd9 ecbb
000003c0: e775 b7bb f0a2 bbbb 8271 e63b c9d7 3e3c
000003d0: 0684 a9ba ddcc 54bb d28d 9c3b d909 caba
000003e0: 6986 43bb 280b 0abc f2cd 6d3c d791 6d3c
000003f0: 2192 333c 4766 a33c 851f b9bc 9f3e dcb9
0.012642682 -0.016742056 -0.00133162 -0.003837278 0.013769087 0.016425489 0.004590431 -0.0069730245
0.0069884765 0.0063608885 -0.0046472657 -0.008774403 0.018086454 0.0047106906 0.005075525 -0.0029231047
-0.00035926967 0.001891201 -0.009110491 0.0009819965 0.0071563846 -0.01807186 0.014845078 0.004553279
0.0062893764 0.009766584 -0.0106111495 -0.0077167847 -0.0035527495 -0.0033889133 0.00937691 0.008573319
-0.0027234666 -0.0041768528 -0.0037413877 0.008886366 -0.013281024 -0.003564675 -0.0059977076 -0.005505215
0.007506136 0.006916628 0.014404538 0.004171336 0.0030680886 -0.019509386 0.002072664 0.0042655775
0.0012950847 0.0007195614 -0.0016870067 -0.007174615 0.0023585872 0.008033887 -0.0016922184 0.017130872
-0.005469053 -0.0044673225 0.0073006325 0.0058343387 0.0060637775 -8.538089e-05 -0.0026311 0.0053042136
0.007438571 -0.00065163634 -0.0045523555 -0.0015544686 -0.004746615 0.012332694 0.006502317 -0.013667542
-0.0054654595 0.0053373976 -0.0037473438 0.004674426 -0.018898113 -0.010410656 -0.012259161 0.0068802284
-0.0018720025 -0.0028950775 -0.005700756 -0.00032085335 -0.026932776 -0.0075276527 0.009677033 0.011333819
-0.0012843488 -0.013609061 -0.0021397243 0.0024102442 -0.0029676943 0.00095167675 0.0015556094 -0.006647744
-0.0070101093 0.0055167084 -0.010954948 0.0027627605 -0.0018938406 0.004514391 0.012333376 0.0067982883
0.0061732605 0.0025816583 0.003489884 0.022244267 -0.0018991474 -0.011069265 -0.009044078 -0.0038965382
-0.006689615 0.0078170365 -0.009951259 -0.004945135 0.0013729193 -0.01825346 0.013903371 -0.007397351
-0.0045262543 0.0096374545 -0.0016068092 -0.004339555 -0.0055244467 -0.00021735269 -0.003857903 0.0032485935
0.0020110277 0.008438429 0.0049335505 -0.004887819 -0.013154569 -0.0040587657 -0.014933757 0.009880807
-0.004715377 0.0029210001 0.016378919 0.0013875347 -0.007476696 0.0007017666 -0.0125774965 0.01056555
-0.005219982 -0.013623207 -0.00452958 0.002745598 -0.0039546182 -0.023066003 0.015934024 9.37731e-05
-0.0063725384 0.0094452845 0.0009730511 0.0027806154 -0.002229493 -0.0033390466 -0.0024918953 0.0031864215
-0.005357567 0.003992537 -0.015325232 -0.012864186 -0.004561071 -0.0012637072 -0.010007726 0.012270918
-0.005105576 -0.0007546969 -0.0059105246 0.0089495 -0.0033588104 -0.004977997 0.009085381 0.005408091
-0.0009715751 0.0075466894 -0.005663573 -0.01620412 -0.0052252077 0.0036639764 0.0033213429 0.002478501
0.00765272 -0.0062653865 -0.0046064667 0.005231385 0.013235562 -0.008736674 0.005236175 -0.014530127
0.0077804597 -0.010529388 0.015442142 -0.0030688716 -0.0014968123 0.00040791472 -0.0015060812 -0.009791396
-0.00072883465 0.0007694705 -0.01958919 0.0033975393 -0.0036700666 0.0159118 0.002381699 -0.009158958
-0.018005354 -0.0069929115 -0.024248939 -0.010493803 -0.004772443 0.009758475 0.0005148295 0.00703001
-0.0062370514 0.00049108424 0.010344285 0.012275401 0.0021923182 0.009057341 0.00076988287 -0.017647287
-0.01505671 0.009609002 0.0006788604 0.008107855 -0.0077525885 0.010503466 0.0062726284 0.0075147958
-0.005655258 -0.00010065511 -0.008602135 -0.0053621954 -0.0021207936 -0.009022764 0.0112274205 -0.007228128
-0.005598772 -0.005726211 0.007032574 0.011648127 -0.0012933023 -0.003247074 0.0047776485 -0.0015414312
-0.0029834753 -0.008425511 0.014514433 0.014500103 0.010960133 0.01994623 -0.022598037 -0.00042008326

action_model._discrete_distribution.branches.0.bias f4 [2]
00000000: 0000 0000 0000 0000
0.0 0.0

action_model._discrete_distribution.branches.1.weight f4 [2, 128]
00000000: 732b b8bb ee0b bbbb e2c1 54bb c11c 9abb
00000010: 991b 9bbb 3e4f 39b9 d81e 323a f22e d43b
00000020: 05c2 72bb ff3e 2cbb 4039 64bb 3809 1ebc
00000030: f15f 1b3a 0384 873b 7d8f 6bbb 8ac8 843b
00000040: 9793 0d3c c399 f9ba df99 9b3b cb7a e3bb
00000050: 0563 5bbc 60e0 d73b 9420 11bb 70d2 b8bc
00000060: 33a0 163a 0232 d439 1b3b 7f3a d3f4 2c3b
00000070: 3a2e 69ba 62e7 b7ba 18b1 2dbb 740f 91ba
00000080: 9f27 1cbc ea46 2cbc 3332 45bc 8945 20bc
00000090: e690 853c ed37 57bc a768 05bc c898 12bc
000000a0: 9fdf 1d39 3ba9 c1ba 9c61 ab3b 0bad 2e3c
000000b0: 245e 1bbb fa36 f2bb 037d 82bc cd7b 723c
000000c0: 945b 923b 8717 2dbc a3f9 4bbb 756c cebb
000000d0: c0e0 2939 a9f1 37bb fd95 55bc 0f98 29b9
000000e0: d584 7bba a3b0 09bc e7e1 6abc 97b0 10bc
000000f0: c577 31bc 901d 87bc f02e 8d3b 51a3 8b3c
00000100: 5c26 44bc 7831 8b3b 524f e03a 37fd 223b
00000110: a886 553b 32f1 f5bb a532 973a 6525 553b
00000120: 90f5 ce3a 4d6a 13ba af81 8b3b 7a07 0a3b
00000130: dda8 ebbb afaf 113c 1126 a73b 683b aabb
00000140: c8ea 0f39 5d78 d1bb d8ce 6f3c dbcf a7bb
00000150: 9bcf 20bc cf21 d93b d813 f03a 127c 883a
00000160: 2cf7 9b3c fc3c 85ba 950d 073c 4f9e adba
00000170: 2779 9abb 77a9 c4bb d792 a7bb 7202 313c
00000180: ff39 9dbc e01e 563c 8848 d23a dc56 263c
00000190: efbe 043c 6383 e9bb bb3e 36bb e889 763c
000001a0: 2242 e5bb fa61 3eb9 afbe 82bc c389 a13c
000001b0: 5436 98bb fbf5 093c 8dde 97bb 80a7 363b
000001c0: 2c37 993b 2f2e 683c a236 d339 03af 353b
000001d0: 816a 943a 9b8d 51bb 721d 4f3b db8c 5c3b
000001e0: a3a2 7cbb 5688 2ab8 efc7 c93b 3a9a 15bc
000001f0: 2b33 323c fc6e 9639 8ba6 10bc f358 193b
00000200: 9838 663b 4bd4 8cbc 2f6d 69ba b3b0 8dbc
00000210: 0f11 bdbb b70e 89bb 9b22 6e3b cbf2 693b
00000220: 521f ea3b 2bdd a63c 330a d6ba 7a85 fcbb
00000230: 1614 85bc e027 1b3c 582a 7dbb 0f1a ed3a
00000240: d275 223a 08ec d83b dd16 b33b 8f54 f0bb
00000250: 6f8a 953a f071 e639 dc75 263b 2303 6cbc
00000260: 640d 8cbb c35f 9e3c ea63 c0bb 7486 0dbc
00000270: d9f9 853b 875d 94bb 7536 b3bb 3f5a 18bb
00000280: 9a10 9a3b 5cbf af3b 8b8b 813c 9d34 99ba
00000290: 5521 4dbc 557c 8b3c 08d3 ca3b a148 3cbc
000002a0: 5d8a 7c3b 1b6b 32bb 50ba 2c3b 2631 3fbc
000002b0: 1ac9 34bb 35fe 56bb 73b4 473c 6d13 1fbc
000002c0: b0c8 6ebc 83dc c13a 92f5 d0bb ec96 a1bb
000002d0: ca48 29b9 b740 1c3c 6715 47bc f8ab 5a3c
000002e0: 6720 f03b 85a9 07bb b6d0 45bb 8aad 3b3b
000002f0: a327 943c f477 1f3c c95c bcb7 91fe 3bbb
00000300: 9743 5b3c 77f6 9d3b 3c5f 8a3a 23bb 613b
00000310: ea48 25bb b1e2 053b 8f0e b33b 3acb 503c
00000320: 0663 08bb b6a5 b43b 76d5 a8bb 5d8b 8539
00000330: 4bad 2abb e23a e83b 25ae db3b d7fb 1a3c
00000340: c198 14bc bc9d bcbb 0746 40bc 515b c939
00000350: 523a 6cbc 38d4 413c 25fe 523a 0c5d 3abc
00000360: ef87 4cb9 4232 fabb 1735 cf3c 708d 363c
00000370: 784c 5d3c 3cb9 ca3b 648d 08bc ebf6 85ba
00000380: f309 b839 4f92 c4bb b387 c73b b9ea 1dbb
00000390: 1325 5a3c 30b5 94bc de96 913b faa2 8b3b
000003a0: b7a8 a3bb 47e8 cebb df0d b5bb 5611 29b9
000003b0: 7910 323c f396 fdbb e7ec 88bc 7796 1cbc
000003c0: ab95 4c3c 0768 593b cde8 fd3a 4df9 7cbb
000003d0: 4f9f 1f3b b58f 53bb 37d2 a1bb 87f4 41bb
000003e0: 9f23 ed3b 1cca 933b d7f0 d63b 2842 6ebc
000003f0: 18f0 e73b 1a37 c53a 85d0 5e39 cad5 31bc
-0.005620414 -0.0057082092 -0.0032464196 -0.0047031348 -0.0047335145 -0.00017672495 0.0006794757 0.006475323
-0.0037041914 -0.0026282666 -0.0034824163 -0.009645753 0.0005927077 0.00413561 -0.003594368 0.0040522264
0.008641145 -0.0019043017 0.0047485675 -0.0069421283 -0.013390307 0.006588027 -0.0022144662 -0.022561282
0.00057459174 0.0004047305 0.00097362854 0.0026391044 -0.0008895133 -0.001403075 -0.0026503261 -0.0011067227
-0.009530931 -0.010514954 -0.012035894 -0.0097822035 0.016304445 -0.013135892 -0.008142627 -0.008947559
0.00015055992 -0.0014775166 0.005230142 0.010661374 -0.0023707235 -0.0073918076 -0.01592875 0.014800024
0.0044664834 -0.010564691 -0.0031124137 -0.00629955 0.00016200822 -0.0028067625 -0.013036248 -0.00016173742
-0.00095946837 -0.00840393 -0.014336086 -0.008831165 -0.010831778 -0.016493589 0.004308574 0.017045649
-0.011972036 0.0042478405 0.0017113483 0.0024870166 0.0032581482 -0.0075055594 0.0011535479 0.003252351
0.0015789736 -0.0005623445 0.004257403 0.0021061585 -0.007191761 0.008891984 0.0051009734 -0.00519507
0.00013725006 -0.0063925222 0.014636718 -0.005121214 -0.009815122 0.0066263448 0.0018316461 0.0010412952
0.01903876 -0.001016527 0.008242984 -0.0013246032 -0.0047141495 -0.006001647 -0.00511394 0.010803806
-0.019192694 0.013068885 0.0016043345 0.010152545 0.008102163 -0.007126258 -0.0027808386 0.015047528
-0.006996409 -0.00018156311 -0.015960066 0.01971901 -0.0046451483 0.008420463 -0.0046346844 0.0027870834
0.0046757665 0.014171167 0.0004028576 0.0027722723 0.0011323245 -0.0031975273 0.0031603244 0.0033653292
-0.0038549087 -4.065813e-05 0.006157867 -0.009131009 0.010876457 0.0002869292 -0.008828769 0.0023398965
0.0035128947 -0.017191073 -0.0008904514 -0.01729617 -0.005769856 -0.0041826623 0.0036336544 0.0035697694
0.007144847 0.020369133 -0.0016329944 -0.0077063413 -0.01624493 0.009469956 -0.0038629975 0.0018089431
0.0006197366 0.006619934 0.005465372 -0.007334299 0.0011409054 0.0004395391 0.002539984 -0.014405045
-0.004274057 0.019332772 -0.0058712857 -0.008638013 0.004088622 -0.004527751 -0.0054691383 -0.002324715
0.004701686 0.005363388 0.01581361 -0.0011688654 -0.012520154 0.01702706 0.0061897077 -0.011491925
0.003853462 -0.0027224484 0.0026356168 -0.011669433 -0.0027585686 -0.0032805328 0.012189019 -0.009709221
-0.014574215 0.0014790449 -0.0063769305 -0.0049313214 -0.00016144212 0.009536914 -0.012151099 0.013346665
0.0073280814 -0.0020700407 -0.0030184216 0.0028637373 0.018085307 0.009733189 -2.2454553e-05 -0.002868567
0.013382814 0.0048206407 0.0010556947 0.0034443818 -0.0025220462 0.0020429308 0.005464382 0.0127437655
-0.0020810976 0.0055129183 -0.0051523997 0.0002547157 -0.0026043232 0.0070870975 0.0067041093 0.009459457
-0.0090696225 -0.005756108 -0.011735446 0.00038405744 -0.0144182015 0.011830382 0.0008048735 -0.011374723
-0.00019505595 -0.0076353857 0.02529387 0.01114212 0.013507001 0.0061866324 -0.008334491 -0.0010220682
0.00035102628 -0.0059988867 0.0060891747 -0.0024096204 0.013314503 -0.018152803 0.0044430336 0.0042613717
-0.0049944776 -0.0063143107 -0.005525335 -0.00016123554 0.010868185 -0.007738942 -0.016714526 -0.009557358
0.0124868555 0.0033173577 0.0019371748 -0.0038600743 0.002435643 -0.00322817 -0.0049383896 -0.0029595213
0.0072369124 0.0045101773 0.006559472 -0.01454214 0.007078182 0.0015046329 0.0002124925 -0.010854194

action_model._discrete_distribution.branches.1.bias f4 [2]
00000000: 0000 0000 0000 0000
0.0 0.0

action_model._discrete_distribution.branches.2.weight f4 [1, 128]
00000000: 0a59 453a edca 4d39 e8be 333b b42c 29ba
00000010: a54c 623c 1914 863a 4b9e 49bc 72f9 d0bb
00000020: b0ac ab39 e7d4 9e3b e02a 8dba 172e 29bb
00000030: 6a8a 59bc 4132 b839 fec6 b8bc 2b49 c138
00000040: 2b7d 6f3a 5014 0d3c 9eb7 ad3b 9784 093c
00000050: 1f2d 03bc b896 a2bb d499 853c ffbc ae3b
00000060: 9029 983b c3b6 09bc f74e ce3b 7c11 ae3b
00000070: bfae 043c c02e b9bb 5214 73bb c271 2e3b
00000080: 64b7 91bc a0dc 90bb 07ab eebb c36a bf3a
00000090: 0bdc 30bc 70c6 9c3b 3734 a93c 4144 ca3b
000000a0: 6a97 0a3c 78b0 b3bb 5aeb 5f3c 75c4 74bc
000000b0: 333a ae3b 3567 9c3b bc1f 87b9 73a0 753b
000000c0: 72f4 743c bfde 3bbb 1af5 a13b 23e5 51ba
000000d0: 4c1f 283c 25bd 113a fe74 15bb 8a5e 733c
000000e0: afef 08bb b392 60bb 97f1 a03b f286 deb9
000000f0: ffe9 9bbc 432a 4cbc 18dc ce38 39f7 023c
00000100: ef9f a0bb 4b2c 09bc fdc5 6b3c 39cc a0bb
00000110: 305e 843c 935d a2bb b578 753b f3bf 64ba
00000120: ff20 d23b 29bf 913b a841 313c 10f4 6bbb
00000130: 44b3 45bb 6de4 95bb c0e2 213c 1824 703c
00000140: a2ae c0ba 7671 a0bc 1838 f13b 3fb6 c43b
00000150: caa3 84bc 52c4 ac3b 594e 2f3b 7c08 3fbb
00000160: 93a9 bdbb d288 c6bb 7f92 773b 4569 753b
00000170: 9b79 6a3c 0d3c a0bb c9e8 143c 8333 78bc
00000180: 4c4c 8b3c 4b9a f5ba f2ec 1d3b 2b5e 49bc
00000190: ab8e 973c 2891 57bb df7b 99bc 4c18 27bb
000001a0: 0d9d 073c d2ae 653c 4926 08ba b8ef 0ab9
000001b0: fbf5 2abb 81b3 ae3c a297 e7ba c24a a83a
000001c0: ab36 813c 39a7 b63a 1bbb 8dbb db57 583b
000001d0: 5734 ca3b 97dc 3fba 1dac 3138 9f32 b2bc
000001e0: c605 9eb9 91e5 bfbb 7785 123b b055 273c
000001f0: e55e aeba 0d86 26bc 10d2 fe3b d07e 23bc
0.00075282215 0.00019625919 0.0027427021 -0.00064534997 0.013812219 0.0010229378 -0.012305806 -0.0063773924
0.00032744324 0.0048471573 -0.0010770224 -0.0025814825 -0.013277629 0.00035132657 -0.022555824 9.216586e-05
0.0009135778 0.0086108 0.00530143 0.008393428 -0.008006363 -0.0049618147 0.016308703 0.0053325887
0.0046436265 -0.00840539 0.0062960344 0.005312143 0.008098303 -0.005651325 -0.003709097 0.0026618098
-0.017787643 -0.004420832 -0.0072835716 0.0014603961 -0.01079465 0.004784398 0.02065478 0.0061726873
0.0084589515 -0.005483683 0.013666952 -0.014939417 0.0053169965 0.0047730454 -0.0002577285 0.0037479668
0.014950858 -0.0028666703 0.0049425485 -0.00080068613 0.010261368 0.0005559496 -0.0022805328 0.014854083
-0.0020894816 -0.0034267127 0.0049116123 -0.00042443682 -0.019032476 -0.012461248 9.863841e-05 0.007993513
-0.004901878 -0.008372377 0.014390466 -0.0049071577 0.016158193 -0.0049550026 0.003745598 -0.00087261124
0.006412625 0.004447837 0.010818876 -0.0036003627 -0.0030166665 -0.0045743496 0.009880722 0.014657043
-0.0014700482 -0.019585352 0.007361423 0.0060031707 -0.016191382 0.0052724266 0.002674958 -0.0029149344
-0.005788037 -0.0060587907 0.0037776527 0.0037446779 0.01431122 -0.004889971 0.009088703 -0.015149
0.017004155 -0.0018738 0.002409753 -0.012290518 0.018500647 -0.0032892916 -0.018735824 -0.002549666
0.00827719 0.014018731 -0.0005193693 -0.00013250008 -0.0026086557 0.021325829 -0.0017669091 0.0012839662
0.015773138 0.0013935334 -0.004325283 0.003301135 0.00617079 -0.0007318942 4.236038e-05 -0.021752654
-0.0003014041 -0.005856224 0.0022357383 0.010213301 -0.0013303427 -0.010163796 0.0077765062 -0.009978965

action_model._discrete_distribution.branches.3.weight f4 [1, 128]
00000000: 039b 5f3b 1b45 2f3c 4fe1 a93b 8af5 76bc
00000010: 3780 ceba f7bb 893c f31e 283c 4ba6 833b
00000020: d2bb 093c c329 0bbc 2717 23bc b0a5 0dbb
00000030: b7c7 30bc 43f1 70bc 6bfa c4bb 09fd 153c
00000040: 6bea 8d3c 893b 143c 1325 b9ba 505d 35bb
00000050: 9fd1 e0bb 9d87 4d3b ed5d cdbb 13b4 d53b
00000060: 6250 d7bb ea7f 33bb 3351 a9bb 583f ebbb
00000070: b5d6 0dbb 647a bfbb 9297 193b e132 16bb
00000080: 231e 55bb 1605 843c 3dba 63bc db1a 3ebc
00000090: 4ab3 e639 5f54 e5bb ca02 523b 1c3a 8dbb
000000a0: 900f 69ba 12cb 023b c3cd 903b cc8b 3c3b
000000b0: 4b14 95ba abc6 e53b c05d fa3b 20f4 f1bb
000000c0: 9487 bb3b c71f 6abb 68e7 c73b 3ad7 f8b9
000000d0: 1ae7 2bbb 13e0 123c 35e2 13bc d3e0 a93b
000000e0: 15c6 9aba bdfe 5939 9ac2 d73b b9e2 143c
000000f0: 0ed9 96bc 9209 32bc a85b 64bc 8ac5 4b3c
00000100: 6d55 3bba 1a6c 6bbc 283f caba 51c6 44ba
00000110: c3b8 9abc c7e8 c63b b50e 543b 628a 883b
00000120: 1c6d 883b 951c e13b df09 033c 288b 5938
00000130: 3764 c5bb 3d0d ce3a 2e80 0bbb 8392 843b
00000140: 6436 8cbb aed5 29bb 3d20 763a 877d 623c
00000150: 9b10 2f3c b8c7 7dbb 8382 4fbc 639f b3bc
00000160: 67a9 0a3c 5d3d 033c fb2c b33b 7027 10bc
00000170: e647 c7bb 236e 2dbc ab30 cd3c ef09 493b
00000180: d583 eb3b 8767 d23b 8d72 3cbc db4f 92bb
00000190: 2b62 123c 99cd a33b dad7 533a 30c2 8c3c
000001a0: 148d b8bb 479a e4bb 5fea 8ebc 74f4 493b
000001b0: 80b2 3ebc 1e2d 043b 9717 62bc cd7a 59bb
000001c0: 976c c73b e3e0 92bc 137c a1bc 53fb 6bbc
000001d0: 07c5 b83b 897b adbb bf48 d2bb 810b a63b
000001e0: 1f2e 2c3c ebda b0bc e0fd ffbb 6da3 163c
000001f0: 4e9b 86bc ce90 323b 50b1 6d3b 6965 a83b
0.0034119494 0.010697628 0.0051843296 -0.0150731895 -0.0015754764 0.016813261 0.010261285 0.0040176264
0.008406596 -0.0084938435 -0.00995425 -0.002161365 -0.010789803 -0.014705959 -0.0060112975 0.009154567
0.017323693 0.009047397 -0.0014125429 -0.0027674027 -0.0068609263 0.003136135 -0.0062673003 0.0065217107
-0.0065708617 -0.0027389475 -0.0051671504 -0.007179182 -0.0021642868 -0.0058434475 0.002343629 -0.002291851
-0.0032519184 0.016115706 -0.013899383 -0.0116030825 0.000440026 -0.006998583 0.003204512 -0.0043099057
-0.00088905636 0.0019957465 0.00441906 0.002876985 -0.0011373846 0.0070122085 0.0076405704 -0.0073838383
0.0057229493 -0.0035724507 0.006100584 -0.00047462602 -0.0026230277 0.008964556 -0.0090261 0.005184272
-0.0011808301 0.0002078963 0.0065844776 0.009087258 -0.018414047 -0.01086654 -0.013937868 0.012437234
-0.00071462133 -0.014369035 -0.0015430199 -0.0007506358 -0.01888693 0.0060702297 0.00323574 0.004166887
0.0041633975 0.0068698623 0.007997959 5.186643e-05 -0.0060239094 0.0015720498 -0.0021286118 0.004045786
-0.004278945 -0.0025914717 0.0009388959 0.013823873 0.010685111 -0.0038723778 -0.012665394 -0.021926587
0.00846324 0.008010236 0.0054680086 -0.008798465 -0.006081569 -0.010585341 0.02504762 0.0030676087
0.0071873465 0.006421033 -0.01150192 -0.004465086 0.008934538 0.0049988744 0.00080811756 0.01718244
-0.005632052 -0.006976399 -0.017445741 0.0030815871 -0.011639237 0.0020168494 -0.01379957 -0.0033184767
0.006085943 -0.0179295 -0.019712484 -0.014403182 0.005638722 -0.0052942676 -0.0064173634 0.0050672893
0.010509043 -0.021588763 -0.0078122467 0.009194237 -0.016431477 0.0027246955 0.0036269017 0.005139042

action_model._discrete_distribution.branches.4.weight f4 [1, 128]
00000000: 08cd ffba 0a0b 8eba b74d 0a3c af32 ca3b
00000010: 6057 d3b9 ec89 c4ba 74b3 abbc 3f3f c9bb
00000020: 352c dbbb a23d e3bb 0822 483c fa61 02bc
00000030: 2b12 3e3b 527a e938 bb4a 523c d7cc 69bc
00000040: 12a2 5fbc a861 fc3b c605 98bb 896b b93b
00000050: bf9d 15bc ed28 7a3c 9b29 1ab6 963a 3d3c
00000060: 0517 36ba 1bf7 eebb 954f 6b39 92d8 0b3c
00000070: 525d 0dbb 874f 373c 877b e03b 2329 bb3c
00000080: fdac 5abc 0b05 233c 1b75 24b9 23ae 3939
00000090: 02b2 ce3b 0fdd f43b 7862 d13a cb04 c53c
000000a0: 2717 2b3c a82e d6b9 a22d dabb 3ba8 49bc
000000b0: fbf5 e0bb 8cba 36bc 4b97 11bc ebb5 843b
000000c0: 268d 49bb 291a 3e3c b9f5 9dbc 4aed fe3b
000000d0: 1350 cb3a 882b 0b3c 9b93 3a3a 3a3e fc3b
000000e0: 61f1 c13b d9a2 443b cf1d 06bc 7be4 893b
000000f0: 2a05 6cbb 0150 1dbc 835f 9cbc 52fe 023c
00000100: e30d 0c3b b7b5 ecbb 4b95 03bc add1 29bc
00000110: fb11 983c 6dec 61ba 6fc5 a6bb 53c6 08bc
00000120: c05e 08bb aa6d febb eab1 d6b9 3972 033c
00000130: 25ab e8bc 2407 a1bc e37d e43b db3b 0cbb
00000140: 8e88 ab3b 4590 5bbc 9f50 8fbc 3348 1f3b
00000150: c75d 1aba 783e 353c 95d3 13bc bb6e babb
00000160: 95cb 70ba 4266 e23b c816 53bc 0350 853b
00000170: 838e 6739 e83f 89bb 4a94 c83b ca81 1cbc
00000180: 0fca 983c d15e 0dbc f1dc 253b b44a 84ba
00000190: 0d40 7d3b 64ec 8e3c 87e5 453c aff7 16bc
000001a0: fbb7 723b 8100 063c 3759 f9bb d70a 933b
000001b0: 33e9 6d39 d987 463a 80b1 fd3a 2a71 123a
000001c0: c2b2 7e3b 1581 583c 6205 7fbb 7861 e5ba
000001d0: bfe0 fa3b 1b75 7f39 4f34 c03a eb06 c139
000001e0: b78a 96bc 57cf d13b 72b3 daba cb1b f93b
000001f0: 23ad 8dbc 8944 27bc edf8 f1bb 8301 c8bb
-0.001951606 -0.001083703 0.00844138 0.0061705927 -0.00040310156 -0.0014994717 -0.020959593 -0.0061415727
-0.0066886195 -0.0069348374 0.012215145 -0.00795793 0.0029002528 0.0001113309 0.0128352 -0.014270029
-0.01364948 0.007702071 -0.00463936 0.005658571 -0.009131848 0.0152685465 -2.2972006e-06 0.0115496125
-0.0006946179 -0.007292641 0.00022440993 0.008535521 -0.0021570516 0.011188394 0.006850663 0.022846764
-0.013346908 0.009949933 -0.00015683884 0.00017707846 0.0063078413 0.0074726413 0.001597478 0.024050137
0.010442532 -0.00040852022 -0.006658272 -0.012308176 -0.0068652607 -0.011152875 -0.008886169 0.0040500066
-0.0030754297 0.011602917 -0.019282209 0.007779752 0.0015511535 0.008494265 0.0007117332 0.0076978477
0.005918667 0.0030004291 -0.008185818 0.004208145 -0.003601382 -0.009601594 -0.019088512 0.007995205
0.0021370582 -0.0072238105 -0.0080312 -0.010364932 0.018563261 -0.0008618299 -0.005089454 -0.008348065
-0.0020808429 -0.007764538 -0.00040949817 0.008022838 -0.02840192 -0.019656725 0.0069730147 -0.0021397981
0.0052347844 -0.013401096 -0.017494498 0.0024304509 -0.00058886077 0.011062257 -0.009022613 -0.0056894696
-0.00091856095 0.0069091627 -0.012883849 0.004068376 0.00022082966 -0.0041885264 0.006121193 -0.0095524285
0.018651037 -0.008628563 0.0025308693 -0.0010093064 0.0038642914 0.017446704 0.012078649 -0.009214326
0.003703593 0.008178831 -0.007609512 0.004487376 0.00022688955 0.00075733435 0.0019355267 0.0005586321
0.0038863872 0.013214369 -0.003891312 -0.0017500361 0.0076561864 0.0002436232 0.0014664027 0.00036816983
-0.018376691 0.0064028907 -0.0016685559 0.00760219 -0.017294472 -0.010209211 -0.0073844106 -0.006103696

network_body._body_endoder.seq_layers.0.weight f4 [128, 1]
00000000: d990 cd3d ac37 1dc0 96ab bc3f fc58 2e3f
00000010: b771 a63f a2e8 6ebf 25ed d53d a01d dcbf
00000020: c096 4cbe 16fc 2c3f a7b5 b4be 404d 863e
00000030: 1c4b 1c3f aacf d93f 4144 02be 0e2b ecbc
00000040: 8ddd 1b3e 85fd 5fbf 2ae1 803f 73d7 1a3e
00000050: 6969 47bf ba2e f03e d2f6 bb3f a9d9 0ac0
00000060: 175d abbe 6f8a e63d 78d2 2ac0 5343 36be
00000070: eb2d b2be 35d0 c3bf cbc8 9ebc 9591 9bbe
00000080: 8ba7 e83e 95dd cf3f 0592 993c 92ca a43e
00000090: ebf2 3cbe 3e3e 983f d6a7 e8be 3868 70c0
000000a0: 1741 ab3e d430 a23f 186e cb3e 0a0c bb3e
000000b0: 07ff ac3f b118 443f a700 63bf 35ae 8e3f
000000c0: abbb 0b3f cb0d 4f3f 679b d5be 1bfb 35bf
000000d0: 1006 55bf dac3 563f 7858 92bf 7d1d a0bf
000000e0: 75e0 023e 3ddb c2bf ac22 dcbf 5350 c53f
000000f0: 74a0 95bf d306 e4be f11c ca3f cb0f eabf
00000100: 3ef3 10bd ddd9 f13e 72f0 0540 be2a 84bf
00000110: 0b74 083f ed08 ac3f ee67 50bf 5254 9f3f
00000120: c105 1e3e a612 3cbf 50ee 5fbf efd5 0940
00000130: 0f7b 38bf 4f7e 683f ed2a 303f c329 04bf
00000140: 7f1f 0d3e 860b 5bbf fa81 96bf 854b 3ebf
00000150: 7a4a 213f 97cc 87bf 1d8a a33e b339 c83d
00000160: 3452 ab3f bf44 d73d c495 f23f 2b11 cabe
00000170: a660 443e 8521 aabe 0041 68bf 7c15 58bf
00000180: 16b6 7fbe d899 85bf b7a6 1c3f 5933 abbe
00000190: 412f c6be 821d 07bf e76e b83f 345c 943f
000001a0: 1e8b 56be 6167 d53f 1ff4 b53f bb8c 8cbf
000001b0: 2040 68bf a0e8 8cbf c127 bd3f 57b3 afbd
000001c0: 5fbb 88bb 8cc8 dc3e 758b 13bd 0783 af3f
000001d0: 841b 563e acc5 663f 8e45 b83e 0680 43be
000001e0: 30db 91bf de52 febe e913 a43f e9c4 7bbf
000001f0: 82c5 96bf fc0d 8ebf f812 97bf 0d4d ae3e
0.10037393 -2.456523 1.4739864 0.6810453 1.3003453 -0.9332372 0.10445622 -1.7196541
-0.19979382 0.6757215 -0.3529484 0.26230812 0.6105211 1.7016499 -0.1272135 -0.028829124
0.15221234 -0.87496215 1.0068715 0.1512125 -0.7789522 0.4691065 1.4684699 -2.169535
-0.3346946 0.11256873 -2.669096 -0.1779912 -0.34800658 -1.5297915 -0.019382855 -0.30384508
0.45440325 1.6239496 0.018746385 0.321858 -0.18452041 1.1893995 -0.4544055 -3.756361
0.33448097 1.2671151 0.39732432 0.36532623 1.3515328 0.76600176 -0.8867287 1.1146914
0.54583234 0.8088042 -0.41720125 -0.7108628 -0.83212376 0.83892596 -1.1433249 -1.2508999
0.12780936 -1.5223156 -1.7198081 1.5415138 -1.1689591 -0.44536456 1.5790082 -1.828607
-0.035388224 0.4723653 2.0928006 -1.0325544 0.5330207 1.3440224 -0.81408584 1.2447608
0.15431882 -0.73465955 -0.8747301 2.1536825 -0.7206277 0.9081773 0.688155 -0.51626223
0.13781546 -0.8556446 -1.1758416 -0.74333984 0.6300427 -1.0609311 0.3194131 0.0977663
1.3384461 0.10511159 1.8951955 -0.39466223 0.19177493 -0.33228698 -0.9072418 -0.8440778
-0.24971804 -1.0437574 0.61191887 -0.33437613 -0.38707927 -0.527794 1.4408845 1.1590638
-0.20951506 1.6672174 1.4215125 -1.0980448 -0.90722847 -1.1008492 1.4777757 -0.08579128
-0.004172727 0.43121755 -0.03602167 1.3711861 0.20908934 0.90145373 0.35990566 -0.19091806
-1.1395016 -0.49672598 1.2818576 -0.98347336 -1.1779025 -1.1098018 -1.1802664 0.3404316

network_body._body_endoder.seq_layers.0.bias f4 [128]
00000000: 0000 0000 0000 0000 0000 0000 0000 0000
00000010: 0000 0000 0000 0000 0000 0000 0000 0000
00000020: 0000 0000 0000 0000 0000 0000 0000 0000
00000030: 0000 0000 0000 0000 0000 0000 0000 0000
00000040: 0000 0000 0000 0000 0000 0000 0000 0000
00000050: 0000 0000 0000 0000 0000 0000 0000 0000
00000060: 0000 0000 0000 0000 0000 0000 0000 0000
00000070: 0000 0000 0000 0000 0000 0000 0000 0000
00000080: 0000 0000 0000 0000 0000 0000 0000 0000
00000090: 0000 0000 0000 0000 0000 0000 0000 0000
000000a0: 0000 0000 0000 0000 0000 0000 0000 0000
000000b0: 0000 0000 0000 0000 0000 0000 0000 0000
000000c0: 0000 0000 0000 0000 0000 0000 0000 0000
000000d0: 0000 0000 0000 0000 0000 0000 0000 0000
000000e0: 0000 0000 0000 0000 0000 0000 0000 0000
000000f0: 0000 0000 0000 0000 0000 0000 0000 0000
00000100: 0000 0000 0000 0000 0000 0000 0000 0000
00000110: 0000 0000 0000 0000 0000 0000 0000 0000
00000120: 0000 0000 0000 0000 0000 0000 0000 0000
00000130: 0000 0000 0000 0000 0000 0000 0000 0000
00000140: 0000 0000 0000 0000 0000 0000 0000 0000
00000150: 0000 0000 0000 0000 0000 0000 0000 0000
00000160: 0000 0000 0000 0000 0000 0000 0000 0000
00000170: 0000 0000 0000 0000 0000 0000 0000 0000
00000180: 0000 0000 0000 0000 0000 0000 0000 0000
00000190: 0000 0000 0000 0000 0000 0000 0000 0000
000001a0: 0000 0000 0000 0000 0000 0000 0000 0000
000001b0: 0000 0000 0000 0000 0000 0000 0000 0000
000001c0: 0000 0000 0000 0000 0000 0000 0000 0000
000001d0: 0000 0000 0000 0000 0000 0000 0000 0000
000001e0: 0000 0000 0000 0000 0000 0000 0000 0000
000001f0: 0000 0000 0000 0000 0000 0000 0000 0000
0.0 0.0 0.0 0.0 0.0 0.0 0.0 0.0
0.0 0.0 0.0 0.0 0.0 0.0 0.0 0.0
0.0 0.0 0.0 0.0 0.0 0.0 0.0 0.0
0.0 0.0 0.0 0.0 0.0 0.0 0.0 0.0
0.0 0.0 0.0 0.0 0.0 0.0 0.0 0.0
0.0 0.0 0.0 0.0 0.0 0.0 0.0 0.0
0.0 0.0 0.0 0.0 0.0 0.0 0.0 0.0
0.0 0.0 0.0 0.0 0.0 0.0 0.0 0.0
0.0 0.0 0.0 0.0 0.0 0.0 0.0 0.0
0.0 0.0 0.0 0.0 0.0 0.0 0.0 0.0
0.0 0.0 0.0 0.0 0.0 0.0 0.0 0.0
0.0 0.0 0.0 0.0 0.0 0.0 0.0 0.0
0.0 0.0 0.0 0.0 0.0 0.0 0.0 0.0
0.0 0.0 0.0 0.0 0.0 0.0 0.0 0.0
0.0 0.0 0.0 0.0 0.0 0.0 0.0 0.0
0.0 0.0 0.0 0.0 0.0 0.0 0.0 0.0
