results/Test2/Fly.onnx (onnx, 80550 bytes, 13 tensors)

discrete_act_size_vector f4 [1, 5]
00000000: 0000 0040 0000 0040 0000 803f 0000 803f
00000010: 0000 803f
2.0 2.0 1.0 1.0 1.0

network_body._body_endoder.seq_layers.0.weight f4 [128, 1]
00000000: 8424 92bf 5865 27bf 0b47 89bf a7ae 6dbf
00000010: d31b 913f c849 4bbe d9cc 96bf f676 273e
00000020: 1acf 13bf 2649 003e 4601 67bf 7c82 fdbf
00000030: 5577 0bc0 e151 8abf 3ca8 5b3f 34d1 d2be
00000040: 95a2 443e 900e 783f 98ac ea3e e5f8 34bc
00000050: 50f8 33bf 3379 1a3f 198d fdbf 3abc 203f
00000060: d646 d43f 8d21 7f3f 0944 4e3f bd53 dd3f
00000070: fe6c c93d 3b43 8e3f d5db 88be 10fa 303f
00000080: 1e44 31bf 16a7 613e 0e81 a8bf aa9a c83f
00000090: 25f1 8fbe 460a 67bf 3379 703f ddfb 993f
000000a0: 9743 32bf 4b22 87be f103 60bd 065d f4bf
000000b0: 39ee 10bf 06a9 1fbf 72d3 d8be f3b1 4e3e
000000c0: 5c23 dbbe 7de2 7d3f 61c4 f0bf dcad b73e
000000d0: 5cbc b33e 7036 223d 8962 75be 0596 153f
000000e0: 27f1 323f b7ed 883f cdd5 dcbf eca7 a23e
000000f0: c0a0 d23e 8390 bfbf 95cf 833f a202 033f
00000100: dbf0 8cbf 7866 45be d5f2 dd3c 68cf 3d3f
00000110: fae7 8fbf c005 763e 05c0 adbf 6add 4f3f
00000120: 449c b8bf 40c0 c93b b39c a53e 752e 473f
00000130: 1b3a 80be 7030 bf3e 56bc 71be ea60 07bf
00000140: 7101 7d3e ffda 983f 68ac 383d 5188 b8bf
00000150: d439 64c0 ac55 8ebe add6 713e bc1c 513f
00000160: 88e3 123f bab3 593f a377 2dbf 2395 e53f
00000170: cb51 133e 3d64 b63f 8861 20bf ad24 74bf
00000180: c181 833f f2b8 473f 1bc5 0e40 0363 413f
00000190: 1225 2640 619c 81bf d868 5c3f 5778 a0bf
000001a0: dd0a cebf 6c90 56be 696f 4abf 9363 373f
000001b0: c2ee fa3e 44c5 b53f 22ae 193f 1cbf aabe
000001c0: 0f1e e93e e301 37c0 81ce 863e e55b b73f
000001d0: 74f0 4b3f 0473 313e 884b 8d3e 8add 2f3f
000001e0: 90eb 93bf 1fb3 263e ec0a febd 7eea e83e
000001f0: fd61 f83e e386 a8bf f341 783e 0e71 a73d
-1.1417394 -0.65389013 -1.0724806 -0.92844623 1.1336616 -0.19852364 -1.1781265 0.16353974
-0.57737887 0.12527904 -0.9023632 -1.9805446 -2.1791584 -1.0806237 0.8580358 -0.41175234
0.19202645 0.9689722 0.45834804 -0.011045669 -0.7030077 0.60341185 -1.9808685 0.6278721
1.6584117 0.9966057 0.80572563 1.729118 0.09835242 1.1114267 -0.2673022 0.69131565
-0.69244564 0.22036394 -1.3164384 1.56722 -0.28113666 -0.9025005 0.93934935 1.2029988
-0.69634384 -0.2639335 -0.05469126 -1.9090889 -0.566135 -0.62367284 -0.4234882 0.2018507
-0.42800415 0.9917372 -1.880993 0.35874832 0.35104644 0.039602697 -0.2396337 0.58432037
0.6989922 1.0697545 -1.7252747 0.3176874 0.41138268 -1.4965976 1.0297724 0.5117589
-1.1011003 -0.1927737 0.02709333 0.741446 -1.1242669 0.24025631 -1.3574225 0.81197226
-1.4422688 0.006156951 0.32346115 0.7780526 -0.2504433 0.37341642 -0.23607 -0.52882254
0.24707581 1.1941832 0.045086294 -1.44166 -3.5660295 -0.27799737 0.23617049 0.8168447
0.57378435 0.85039866 -0.67760676 1.7936138 0.1438667 1.424934 -0.6264882 -0.9536846
1.0273973 0.7801658 2.2307804 0.75541705 2.5960126 -1.0125848 0.8609748 -1.2536725
-1.6097065 -0.2095353 -0.7907625 0.71636313 0.49010283 1.4200826 0.6003133 -0.3334893
0.45530745 -2.8594902 0.26329425 1.4324919 0.7966378 0.17329031 0.27596688 0.68697417
-1.1556263 0.16279267 -0.12404427 0.45491403 0.4851226 -1.3166164 0.24243908 0.0817586

network_body._body_endoder.seq_layers.0.bias f4 [128]
00000000: 0000 0000 0000 0000 0000 0000 0000 0000
00000010: 0000 0000 0000 0000 0000 0000 0000 0000
00000020: 0000 0000 0000 0000 0000 0000 0000 0000
00000030: 0000 0000 0000 0000 0000 0000 0000 0000
00000040: 0000 0000 0000 0000 0000 0000 0000 0000
00000050: 0000 0000 0000 0000 0000 0000 0000 0000
00000060: 0000 0000 0000 0000 0000 0000 0000 0000
00000070: 0000 0000 0000 0000 0000 0000 0000 0000
00000080: 0000 0000 0000 0000 0000 0000 0000 0000
00000090: 0000 0000 0000 0000 0000 0000 0000 0000
000000a0: 0000 0000 0000 0000 0000 0000 0000 0000
000000b0: 0000 0000 0000 0000 0000 0000 0000 0000
000000c0: 0000 0000 0000 0000 0000 0000 0000 0000
000000d0: 0000 0000 0000 0000 0000 0000 0000 0000
000000e0: 0000 0000 0000 0000 0000 0000 0000 0000
000000f0: 0000 0000 0000 0000 0000 0000 0000 0000
00000100: 0000 0000 0000 0000 0000 0000 0000 0000
00000110: 0000 0000 0000 0000 0000 0000 0000 0000
00000120: 0000 0000 0000 0000 0000 0000 0000 0000
00000130: 0000 0000 0000 0000 0000 0000 0000 0000
00000140: 0000 0000 0000 0000 0000 0000 0000 0000
00000150: 0000 0000 0000 0000 0000 0000 0000 0000
00000160: 0000 0000 0000 0000 0000 0000 0000 0000
00000170: 0000 0000 0000 0000 0000 0000 0000 0000
00000180: 0000 0000 0000 0000 0000 0000 0000 0000
00000190: 0000 0000 0000 0000 0000 0000 0000 0000
000001a0: 0000 0000 0000 0000 0000 0000 0000 0000
000001b0: 0000 0000 0000 0000 0000 0000 0000 0000
000001c0: 0000 0000 0000 0000 0000 0000 0000 0000
000001d0: 0000 0000 0000 0000 0000 0000 0000 0000
000001e0: 0000 0000 0000 0000 0000 0000 0000 0000
000001f0: 0000 0000 0000 0000 0000 0000 0000 0000
0.0 0.0 0.0 0.0 0.0 0.0 0.0 0.0
0.0 0.0 0.0 0.0 0.0 0.0 0.0 0.0
0.0 0.0 0.0 0.0 0.0 0.0 0.0 0.0
0.0 0.0 0.0 0.0 0.0 0.0 0.0 0.0
0.0 0.0 0.0 0.0 0.0 0.0 0.0 0.0
0.0 0.0 0.0 0.0 0.0 0.0 0.0 0.0
0.0 0.0 0.0 0.0 0.0 0.0 0.0 0.0
0.0 0.0 0.0 0.0 0.0 0.0 0.0 0.0
0.0 0.0 0.0 0.0 0.0 0.0 0.0 0.0
0.0 0.0 0.0 0.0 0.0 0.0 0.0 0.0
0.0 0.0 0.0 0.0 0.0 0.0 0.0 0.0
0.0 0.0 0.0 0.0 0.0 0.0 0.0 0.0
0.0 0.0 0.0 0.0 0.0 0.0 0.0 0.0
0.0 0.0 0.0 0.0 0.0 0.0 0.0 0.0
0.0 0.0 0.0 0.0 0.0 0.0 0.0 0.0
0.0 0.0 0.0 0.0 0.0 0.0 0.0 0.0

network_body._body_endoder.seq_layers.2.weight f4 [128, 128]
00000000: f9be c2bd cd71 693d 2e5f 3fbd 5661 f4bc
00000010: a4ab d23c ac01 7abd 8871 07be dc19 31bc
00000020: 3e3e 5bbe 6cb0 00be 9a85 9ebc f83e dabd
00000030: 25ce 8f3d c5f3 bd3d e229 f0bd 02b2 57bd
00000040: ccc8 163d d070 10be 4c51 0c3d 46d9 8c3d
00000050: e721 52bd bfda 243e 9e7a ba3d 8ae9 28be
00000060: 9dad 193d b42a 8cbd 3962 973d 56fd 2d3d
00000070: 525d db3b b4ff 913d 67ca 473e b419 8ebd
00000080: 9af4 da3c 1565 eabc d100 c73b 3cb8 cbbd
00000090: 5687 a23d 2314 1ebd d414 25bd d25f b93d
000000a0: ef91 963d dc20 07bd b162 063e 78ed c0bd
000000b0: c4f2 d13d b673 cb3d 6b91 b23c 4dcb b0bc
000000c0: 952b f3bc a9e3 9fbc 935c 74bd 505b d0bc
000000d0: dc31 e63d bce9 63bd 89c9 d7bd 394c 56bd
000000e0: 6bb7 3a3e d6f2 cabc bd04 0bbd aa3a 95bd
000000f0: f306 4ebd b784 c9bd 116b 183e 3148 b9bd
00000100: df14 85bd cfa0 b33c f900 1ebd 2c37 763d
00000110: ba21 ad3d e33a 72bc a111 983c e888 6e3d
00000120: dc42 90bb ba64 31bd 5d04 9cbc 0bfd 473a
00000130: 5764 e6bd 28cb 76bd 955f 72bc f37d 30be
00000140: 3721 88bc d93c 8bbd a811 053d dda3 893b
00000150: 34d5 90bd add8 d83d 688a 0fbe 1685 8f3e
00000160: ca87 623d 30e8 a4bd 513d 3d3d dd2b 06be
00000170: 3586 cbbd f609 1cbd 4ab6 973c a77d 2ebe
00000180: ed13 6dbc 5ac8 883a 47fb b1bd ec79 55bc
00000190: 7906 c83d a757 053e ec62 2dbd 9aac 8e3d
000001a0: 80a0 683c de56 36bd 2261 edbc 663f 39bd
000001b0: fa1f 7ebb 646b dcbd 17be b73d 900e 52bd
000001c0: e79f d83d 6255 2c3e adb3 453d a839 43bd
000001d0: 826c e3bd edff 333c 86ec 06bd e70b ee3c
000001e0: e949 cf3a 556a e9bc 5264 433a 9488 a2bc
000001f0: e0eb 5c3c 5930 24bd de52 273c 0c43 e13d
00000200: 9772 923d c584 1cbe fba1 c43c 5f53 d53d
00000210: cde5 443b 51fa 77bd c851 a03c 1156 45be
00000220: bdf8 52be d369 9abd 98e1 623b 191a 483d
00000230: 3f22 ccbb 56b6 d8bd 6e54 9f3c 89b9 923c
00000240: 21ee bc3c e037 d23d 4434 1b3d 03d8 cf3c
00000250: 580e c4bb 843e 00be 09cd 1d3d d7ee 2d3d
00000260: 0c24 0bbe 25fe 04bc 6b84 fc3d 70a5 bcbc
00000270: 93f1 11bd 149f f6bd 27ce 95bd f1eb 36bd
00000280: d35b 093e d867 03bd 4c8b 673d 3e10 e13d
00000290: f9f5 03be cb27 37be ccb2 a13d 2ab4 a6bd
000002a0: 8e5f f2bd af12 1a3d c1d7 173d d60a 403d
000002b0: d4cd da3d c737 9abd bf17 94bd a729 cd39
000002c0: 82c8 24bd 7819 59bd cfd3 813d 103e 81bd
000002d0: 2e09 2ebd 9649 fb3d f112 b9bd ea1c 80bd
000002e0: 944e 85bc 56c5 d9bd 1b59 1e3e d4b9 efbd
000002f0: 0cc3 973d a9bd a73c 13dd 983d 78c9 0f3b
00000300: 53a7 83bd 7927 043e 7c56 3ebd 6aa8 e3bd
00000310: aa6d 503d a48a d93b e7a7 533d 185c a5b9
00000320: f4f9 8d3d 4242 ce3d dd51 d8bd fecb 96bc
00000330: 2aff 003e 2c3f 633d 721b 943d 0bba f7bb
00000340: 4d35 d7bc b656 91bb fdd0 9ebc 3641 56bd
00000350: 8ccc f93c 7cfe 03bd baa4 25bd 2256 a1bc
00000360: 19f1 17be 4677 f6bd c573 2abe f1e2 37be
00000370: d6ee 4fbd 452c fcbc 0111 043d 9678 a63d
00000380: 4405 deba da57 ad3d 6dad c03d 334e c63c
00000390: 3a18 633d dc55 d3bd 4071 8a3d 7479 1a3d
000003a0: 080a a63c ae57 213e 3061 dfbc 845f 533d
000003b0: ec74 25bc 25ed 5abd 76b5 49bd 7e49 01be
000003c0: df5e 323c 6a89 023e ca4f c2bd 2b98 513e
000003d0: e11f a0bd 8d53 87bd 5d85 ecbd 3800 d43a
000003e0: 1a8e 4b3d 1349 3abe b361 c43d 06b3 f2bb
000003f0: a1db 67bd 93b9 fc3b f7f2 b33c ac85 083c
-0.095090814 0.056993295 -0.04672163 -0.02983157 0.02571661 -0.06103675 -0.13226902 -0.010809388
-0.21410462 -0.125673 -0.019350816 -0.106565416 0.07021741 0.09275011 -0.117267385 -0.052659996
0.03681259 -0.14105535 0.03425722 0.06877379 -0.051301863 0.1609907 0.091054186 -0.16495338
0.037519086 -0.068440825 0.07391781 0.042477928 0.0066944743 0.071288496 0.19510804 -0.06938496
0.026727963 -0.028612653 0.0060730954 -0.09947249 0.079359695 -0.038593423 -0.040303066 0.090514794
0.073520534 -0.03299032 0.13123585 -0.094202936 0.10251382 0.099341795 0.021797856 -0.021581316
-0.029683867 -0.019517737 -0.0596586 -0.025434166 0.11239979 -0.05564283 -0.10536487 -0.052318785
0.18234031 -0.024773996 -0.033940066 -0.0728658 -0.050299596 -0.098397665 0.14884593 -0.090469725
-0.064981215 0.021927265 -0.038575146 0.06011121 0.084536985 -0.0147845475 0.018563094 0.058236033
-0.0044025015 -0.04330895 -0.01904505 0.0007628954 -0.11249607 -0.06025234 -0.014793296 -0.17235546
-0.0166174 -0.06798715 0.03248754 0.004200442 -0.07071915 0.105882026 -0.14017642 0.28031224
0.05530528 -0.08052099 0.046201054 -0.1310267 -0.09937707 -0.038095437 0.01851954 -0.1704012
-0.014470083 0.0010435686 -0.086905055 -0.013029557 0.097668596 0.13021718 -0.042330667 0.06966515
0.014198422 -0.044516437 -0.02897698 -0.045226477 -0.0038776384 -0.10762671 0.08971804 -0.05128342
0.10577374 0.16829446 0.048267055 -0.047662407 -0.111046806 0.01098631 -0.03294041 0.02905841
0.0015814874 -0.028493086 0.00074536086 -0.019840516 0.013483971 -0.04008517 0.010212628 0.10999116
0.071507625 -0.15285023 0.02400302 0.104162924 0.0030044199 -0.060541455 0.019570246 -0.19271113
-0.20602699 -0.075397156 0.0034619328 0.048853014 -0.0062296684 -0.10581653 0.019449439 0.017910736
0.023062767 0.102645636 0.03789164 0.025371557 -0.005983155 -0.12523848 0.038525615 0.042464104
-0.1358797 -0.008117233 0.12329944 -0.023028105 -0.035630774 -0.120420605 -0.07314711 -0.044658605
0.13413934 -0.032081455 0.05652933 0.10989426 -0.128868 -0.17886274 0.07895431 -0.08139832
-0.11834632 0.037615474 0.037070993 0.046885334 0.1068379 -0.0753017 -0.07231092 0.0003913168
-0.04023028 -0.053002805 0.063392274 -0.063106656 -0.042489223 0.12269895 -0.09036816 -0.06255515
-0.01627282 -0.10633342 0.15463679 -0.11705366 0.07410249 0.02047618 0.074640416 0.0021940153
-0.06428399 0.12905683 -0.046469197 -0.11116107 0.050885834 0.0066388417 0.051673796 -0.00031539868
0.069324404 0.100712314 -0.10562489 -0.018407818 0.12597337 0.055480167 0.07231797 -0.00756002
-0.026270533 -0.0044353856 -0.019386763 -0.052308284 0.030493043 -0.032225117 -0.0404403 -0.019694392
-0.14838065 -0.12034468 -0.16645725 -0.17957665 -0.05076488 -0.030782828 0.03224278 0.08128469
-0.0016938825 0.08464022 0.09408078 0.02420721 0.055443026 -0.10319111 0.06759882 0.037713483
0.020268455 0.15756103 -0.027268022 0.051604763 -0.010098677 -0.053448815 -0.04924532 -0.12625691
0.010886877 0.12747732 -0.09487875 0.20468204 -0.078185804 -0.06607733 -0.115488745 0.0016174382
0.049696065 -0.18191938 0.09588947 -0.007406595 -0.05660594 0.007712552 0.02196644 0.008332651

network_body._body_endoder.seq_layers.2.bias f4 [128]
00000000: 0000 0000 0000 0000 0000 0000 0000 0000
00000010: 0000 0000 0000 0000 0000 0000 0000 0000
00000020: 0000 0000 0000 0000 0000 0000 0000 0000
00000030: 0000 0000 0000 0000 0000 0000 0000 0000
00000040: 0000 0000 0000 0000 0000 0000 0000 0000
00000050: 0000 0000 0000 0000 0000 0000 0000 0000
00000060: 0000 0000 0000 0000 0000 0000 0000 0000
00000070: 0000 0000 0000 0000 0000 0000 0000 0000
00000080: 0000 0000 0000 0000 0000 0000 0000 0000
00000090: 0000 0000 0000 0000 0000 0000 0000 0000
000000a0: 0000 0000 0000 0000 0000 0000 0000 0000
000000b0: 0000 0000 0000 0000 0000 0000 0000 0000
000000c0: 0000 0000 0000 0000 0000 0000 0000 0000
000000d0: 0000 0000 0000 0000 0000 0000 0000 0000
000000e0: 0000 0000 0000 0000 0000 0000 0000 0000
000000f0: 0000 0000 0000 0000 0000 0000 0000 0000
00000100: 0000 0000 0000 0000 0000 0000 0000 0000
00000110: 0000 0000 0000 0000 0000 0000 0000 0000
00000120: 0000 0000 0000 0000 0000 0000 0000 0000
00000130: 0000 0000 0000 0000 0000 0000 0000 0000
00000140: 0000 0000 0000 0000 0000 0000 0000 0000
00000150: 0000 0000 0000 0000 0000 0000 0000 0000
00000160: 0000 0000 0000 0000 0000 0000 0000 0000
00000170: 0000 0000 0000 0000 0000 0000 0000 0000
00000180: 0000 0000 0000 0000 0000 0000 0000 0000
00000190: 0000 0000 0000 0000 0000 0000 0000 0000
000001a0: 0000 0000 0000 0000 0000 0000 0000 0000
000001b0: 0000 0000 0000 0000 0000 0000 0000 0000
000001c0: 0000 0000 0000 0000 0000 0000 0000 0000
000001d0: 0000 0000 0000 0000 0000 0000 0000 0000
000001e0: 0000 0000 0000 0000 0000 0000 0000 0000
000001f0: 0000 0000 0000 0000 0000 0000 0000 0000
0.0 0.0 0.0 0.0 0.0 0.0 0.0 0.0
0.0 0.0 0.0 0.0 0.0 0.0 0.0 0.0
0.0 0.0 0.0 0.0 0.0 0.0 0.0 0.0
0.0 0.0 0.0 0.0 0.0 0.0 0.0 0.0
0.0 0.0 0.0 0.0 0.0 0.0 0.0 0.0
0.0 0.0 0.0 0.0 0.0 0.0 0.0 0.0
0.0 0.0 0.0 0.0 0.0 0.0 0.0 0.0
0.0 0.0 0.0 0.0 0.0 0.0 0.0 0.0
0.0 0.0 0.0 0.0 0.0 0.0 0.0 0.0
0.0 0.0 0.0 0.0 0.0 0.0 0.0 0.0
0.0 0.0 0.0 0.0 0.0 0.0 0.0 0.0
0.0 0.0 0.0 0.0 0.0 0.0 0.0 0.0
0.0 0.0 0.0 0.0 0.0 0.0 0.0 0.0
0.0 0.0 0.0 0.0 0.0 0.0 0.0 0.0
0.0 0.0 0.0 0.0 0.0 0.0 0.0 0.0
0.0 0.0 0.0 0.0 0.0 0.0 0.0 0.0

action_model._continuous_distribution.mu.weight f4 [1, 128]
00000000: bdc1 293b 2be9 043a 8ce5 8b3b f180 cabc
00000010: 43b1 bebc 3fbd b13b c701 973b 57de 9eba
00000020: 135e 47bc 6059 dbbc a38a 0d3c 83da a6bb
00000030: 15ce 52bc 9f1c b63c e0d8 7dba c39d 913b
00000040: 8a78 ea38 181b a6bc 5b31 efbc 028c e2bc
00000050: 28d4 dabc 8f9c 4c3c ff71 a2bc 574c 713c
00000060: f58c 603b 4b19 123b efe8 7f3c 73a9 9d3b
00000070: 8443 8a3c 0576 ce3c fee3 11bd ed7e 4dbc
00000080: 0674 14bc d362 f1bb df30 e9bc 654d 65ba
00000090: 1093 27bb 42be a53c 294f 8bbb 5045 703c
000000a0: 08d4 a7bc ffe4 a23c c88e d6bb dd16 05bd
000000b0: 2273 65bb 4526 f0bb 6f60 a6bc a8bd c73c
000000c0: 8c06 a3bc 2998 c13b 7598 573c 6230 f73c
000000d0: 7580 cfbc 97ef f43b b119 c0bb a0cf 61bc
000000e0: c3bd 9f3b f5c1 dc3b b6cb 153a 443b be3b
000000f0: 4f3d 9ebb 9327 9d3b 389f 90bc 5fb9 80bb
00000100: f728 e8bb 5187 11bd 6f7d 7abc 6bf2 7d3c
00000110: db97 163d 0f3e 0f3c c581 943c cad4 e13b
00000120: aca0 46bc c2a6 c23b 1838 d43c c5b9 2039
00000130: 7342 c83b 80eb 5dbc 0bd9 213b 0b62 8bbb
00000140: 5b93 b93b 6de6 503c b337 693c f3d5 cf3b
00000150: 847e 92bb 6f92 d93b 5fe2 c3bb fdd5 ce3b
00000160: 2780 84bc 7bcd a0ba a2b0 4fb9 32f6 233b
00000170: bc4c 433c dbbb f3bb ccf8 37bc df25 21bc
00000180: 1036 bb3c 1b6b 22bd 2dcb 1f3d abc5 83bc
00000190: 3520 8abc bffe d2bc 43d6 e63c a1af 203c
000001a0: cf2c a03b b87d d6bc fa03 e2bc 2b8b d7bc
000001b0: 8539 903c 7ae6 ef3b fd6d 143c cb54 0b3c
000001c0: 36f3 453c 3f10 b23c c50a 303c a2f0 2cbb
000001d0: 87a2 59bb f542 a8bc aff4 debc bc20 a1bc
000001e0: ba1c db3a c513 5bba 9df8 bdbb 2a1c f1bb
000001f0: 751d 4d3a 27da 18bb 623a d6bb f8ce e83a
0.002590283 0.0005070145 0.0042693075 -0.024719687 -0.023277884 0.005424171 0.004608366 -0.0012120706
-0.012168425 -0.026776016 0.008639011 -0.0050919666 -0.012866517 0.022230444 -0.0009683501 0.0044438555
0.00011180442 -0.020276591 -0.02919834 -0.027654652 -0.026712492 0.012488498 -0.019829748 0.0147276735
0.0034263704 0.0022292908 0.015619501 0.0048114597 0.016877897 0.02520276 -0.03561782 -0.0125424685
-0.009060865 -0.007366517 -0.028465686 -0.00087471894 -0.0025569834 0.020232324 -0.00425138 0.014664963
-0.020486847 0.019884584 -0.0065477826 -0.032492507 -0.0035011251 -0.007328781 -0.020309655 0.024382427
-0.019900583 0.0059080315 0.013158907 0.030174438 -0.025329808 0.0074748504 -0.0058624377 -0.013782412
0.0048749163 0.0067369887 0.0005714254 0.005805405 -0.004829086 0.0047959774 -0.017654046 -0.003928348
-0.0070849615 -0.03552944 -0.015288695 0.0154996915 0.036765914 0.008742823 0.018128285 0.0068918215
-0.012123268 0.0059402892 0.025905654 0.00015327994 0.006111437 -0.013544917 0.0024696018 -0.004253631
0.005663318 0.01275025 0.014234471 0.0063426434 -0.0044706482 0.0066397707 -0.0059779133 0.0063121305
-0.016174389 -0.0012268269 -0.00019806859 0.002501857 0.01192015 -0.0074381656 -0.011228751 -0.009835689
0.022852927 -0.039652925 0.039012123 -0.016085466 -0.01686106 -0.025756238 0.02817834 0.009807498
0.004888154 -0.026182994 -0.027589787 -0.026311478 0.017605552 0.007321176 0.009059426 0.008504103
0.012081912 0.021736262 0.010744755 -0.0026388546 -0.0033208446 -0.02053974 -0.027216284 -0.01966893
0.0016716935 -0.0008357133 -0.0057974593 -0.0073580937 0.0007824519 -0.0023323388 -0.0065377215 0.0017761877

action_model._discrete_distribution.branches.0.weight f4 [2, 128]
00000000: b2e3 853c 33b5 96bc 2538 d9bc 6d69 533c
00000010: bbd8 98bb 1847 73bc 735a 32bc 10c0 8c3a
00000020: 5bf1 b6bc a01c 63bc 2715 8c3a a001 fe3a
00000030: 2d73 0bba fc08 c9bb 1993 4c3c 820f efbb
00000040: 5583 d8bb d70a 14bc 0b51 9ebb bb33 273b
00000050: b7a1 593b 5784 b23a 7fe5 433a 068b 343c
00000060: a84c 443b 1a20 01bb 4bb0 3aba e73e 5dbc
00000070: b0d0 efba 5250 6d3a 94b6 413c 6e84 2fbc
00000080: c6e1 46bc 614b 393c d77d 85bb 9fe2 26bc
00000090: ca52 fc3b 55b6 4dbb 3a1c bd3b 3404 993b
000000a0: 9597 e73a 36fd 4bbc 87e5 74bb 5a7e 92ba
000000b0: 602b 3fbc 3783 cab9 bb59 77bc 76cd 483c
000000c0: ba18 03bc e72f 0d3b 4160 93bb 936e 2c3c
000000d0: c514 a63b b580 193a f7f4 183c cb47 553b
000000e0: 8bf7 c4b9 d91f c5ba 0f8a 803b b039 c43c
000000f0: b97f b4bb 4441 34bc 1b87 483c b762 ddbb
00000100: aa48 53bc 8b7f 8ebc e8e3 693c 9373 633b
00000110: d6fa 123b bbf1 11bc d584 883b e3fc 683b
00000120: 7ad3 75bb 43d8 60ba f627 2b3c abfa a9bb
00000130: e7d4 2b3c 7f8b 0cbb 3f03 a1bc ff41 3ebc
00000140: 24c2 29bc a014 1fbc 2322 50bb 9f8b 49b9
00000150: 2367 9fbb 5ade 40bb 45d7 77bb ad31 99bc
00000160: c68e 88ba 83c8 2c3a 8d19 f9bb 2764 9ebb
00000170: 85dc 1abc eaa9 96bb 0904 9a3b ed37 433c
00000180: 795e 9bbb 3d2f ee3b 0bb4 2cbc 237c 7b3c
00000190: d6e9 803c 2ab0 733b 94cf 413c a9c5 283c
000001a0: fa99 54bb c96d 90bb 8202 54bb cdff 113c
000001b0: 89c2 3e3b 08c2 49bc 4d2e d03b ca13 13bb
000001c0: 1a6b 823b a3fc 933c 5c87 a43c 6927 943c
000001d0: 68f2 743c 6840 373b adaf b139 25ff c8bb
000001e0: b532 4dbc 1673 913b 8a0e 693a c371 ea3a
000001f0: 2abf 853b d210 9dbb 980b 993a 7df1 a93b
00000200: 3b98 e1bb e074 843c c036 1b3c 57f9 a3ba
00000210: ab77 463a 3c0a 1fbc 8715 29bb 0324 8c3c
00000220: 599e 243b 3705 f43b d52a f4bb 7d3c 443a
00000230: fbfc 173c a1c8 833b 26b9 bf3b 5f42 323c
00000240: 4bd9 873b e74f 0b3c 58d2 3d3b ab06 08bc
00000250: 4f53 2b3b 49ed 873a 7f92 67bb cf91 2fbb
00000260: 9a21 1fbc 4216 87bc 0b0a 183c efe5 c3bb
00000270: 5e9c cbbb e3ba 6b3a 9f7c 61bb cf9f 8bbc
00000280: 61a4 b839 4276 2f3c 38e2 7abc 57fc a3bb
00000290: f496 913b 6742 91bb 2084 383c f88b ef3a
000002a0: 3740 c23b fc99 2fbc 603d 7e3c bc68 80bb
000002b0: b3cb 393b 96bf 4aba e20a d0bb e1b8 8ebb
000002c0: deba afbb 7b93 3fbb 8947 32bc 51b6 af3b
000002d0: ff24 523c 1396 693b 027c 053c f995 073b
000002e0: c309 c3b9 786b a4bb 8bee 97bc c78b 37bb
000002f0: e535 c5bb 628b e139 a588 f03b ed60 523c
00000300: f220 8fbb b724 95bc 4020 1ebb 3099 32bb
00000310: f9c5 9a3b 8123 933c f700 803b 83c7 523b
00000320: e808 cc3b 8d74 cabb 2c58 363b 6fcb 6139
00000330: 82f9 043b f33b 8c3a dfac 69bc 304c 0bbb
00000340: 1840 703c f9c3 1ebb 0209 343c 38d7 66bc
00000350: b877 6bbb 838c 18bc 0b46 913b e219 f83b
00000360: 4bb0 c2ba 3b38 dfba a58f 9b3b 387a 77bc
00000370: b017 9c3b 17b1 95bb 635e 1cbc 9dac 14bc
00000380: 07e1 a33a 3e7f 93bc 103f 3cbb 0a4d 593c
00000390: 1fad b2bb 4fb7 f03b 1794 2dbc f760 8bbc
000003a0: 7b40 0e3c bb8e 243b 421a f03b fe63 b1bb
000003b0: 89ae 0abc facc 8d3c 0789 00bc fa2e 683b
000003c0: 17f9 b8bc d581 ee3b 6059 8aba f18f 04bc
000003d0: d777 fcb9 da65 d2bc 3bdf 5ebb c654 9f3a
000003e0: f6fe b0bb 3350 7cbc f8b6 82bc 5ffb 89bb
000003f0: 3a14 75bb 9281 3abb eb0c 55bc 85b8 73bc
0.016343925 -0.01839695 -0.02651603 0.012903553 -0.004664508 -0.014848493 -0.010885823 0.0010738391
-0.022331884 -0.013861805 0.0010687456 0.0019379146 -0.0005319592 -0.006135104 0.012486243 -0.00729555
-0.006607453 -0.009035788 -0.0048314384 0.0025513011 0.0033207962 0.0013619763 0.0007472857 0.011019474
0.0029952917 -0.0019702972 -0.00071216066 -0.013503767 -0.0018296447 0.0009052801 0.011823315 -0.010712726
-0.0121387895 0.011309476 -0.004073839 -0.010185867 0.007700299 -0.0031389196 0.005771187 0.0046696905
0.0017669076 -0.012450507 -0.0037368254 -0.0011176572 -0.011668056 -0.00038626205 -0.015097077 0.012256017
-0.008001501 0.0021543445 -0.0044975583 0.01052441 0.005068394 0.00058556657 0.009335748 0.0032544013
-0.00037568467 -0.0015039399 0.003922708 0.023953289 -0.00550839 -0.011001889 0.012239243 -0.0067561525
-0.012895742 -0.017394802 0.0142755285 0.0034706339 0.0022427342 -0.008907731 0.0041662254 0.0035551123
-0.0037510083 -0.00085771474 0.010446539 -0.0051873527 0.010487772 -0.002144545 -0.019654868 -0.011612414
-0.010361228 -0.009709507 -0.0031758628 -0.00019220867 -0.00486459 -0.0029429407 -0.003781752 -0.018700445
-0.0010418526 0.0006591158 -0.007601923 -0.0048337164 -0.00945199 -0.004597892 0.004700188 0.011915189
-0.0047414866 0.007268815 -0.010540972 0.015349421 0.015736502 0.003718386 0.011829276 0.010301032
-0.003244041 -0.0044076187 -0.0032350128 0.008911085 0.0029107651 -0.012314327 0.0063531757 -0.0022442215
0.0039800527 0.018064803 0.020084076 0.018085198 0.014950372 0.0027961973 0.0003389096 -0.006133931
-0.0125242965 0.004438768 0.0008890411 0.0017886687 0.0040816264 -0.004793265 0.0011676429 0.0051862583
-0.0068846024 0.016169012 0.009473503 -0.0012510222 0.00075709325 -0.00970703 -0.0025800185 0.017107015
0.0025118797 0.0074469107 -0.007451395 0.000748582 0.009276624 0.0040217196 0.005850929 0.010880082
0.0041457764 0.008502937 0.0028964486 -0.008302371 0.0026142185 0.0010370399 -0.0035335121 -0.002678979
-0.009712601 -0.016490106 0.009279738 -0.005978338 -0.006213709 0.0008992387 -0.0034406555 -0.017043976
0.00035217687 0.010709347 -0.015312724 -0.0050044465 0.004443044 -0.0044329646 0.01126197 0.0018275967
0.005928065 -0.010717865 0.015517563 -0.0039187353 0.0028350174 -0.0007734237 -0.0063489536 -0.0043555354
-0.0053628525 -0.0029232192 -0.010881313 0.00536231 0.012826203 0.003564243 0.008147242 0.0020688756
-0.0003720057 -0.005017694 -0.018546363 -0.0028006898 -0.0060183876 0.00043019193 0.007340508 0.012840492
-0.004367941 -0.018205984 -0.002412811 -0.0027251951 0.004723307 0.017961266 0.003906365 0.0032162375
0.0062266476 -0.0061784447 0.002782355 0.00021533457 0.002029032 0.0010699019 -0.014262407 -0.0021255128
0.014663719 -0.0024225696 0.010988476 -0.014089398 -0.0035929512 -0.009310844 0.0044333986 0.007571445
-0.0014853565 -0.0017030308 0.0047473484 -0.015104823 0.004763566 -0.00456823 -0.009543988 -0.009074357
0.0012502976 -0.01800501 -0.0028724112 0.013262996 -0.0054527665 0.007346071 -0.010594389 -0.01701401
0.0086823655 0.0025109488 0.007327349 -0.0054135313 -0.008464464 0.017309655 -0.00784517 0.003542839
-0.022579713 0.007278661 -0.00105552 -0.008090959 -0.00048154473 -0.025683332 -0.0034007567 0.0012156002
-0.0054014875 -0.01539998 -0.015956387 -0.004210874 -0.003739609 -0.0028458578 -0.013003568 -0.014875536

action_model._discrete_distribution.branches.0.bias f4 [2]
00000000: 0000 0000 0000 0000
0.0 0.0

action_model._discrete_distribution.branches.1.weight f4 [2, 128]
00000000: cd70 1cbb caa9 013c 07eb 04bc aa7b 01ba
00000010: dbf0 8bbb 3d17 a8bb 3ac2 d0bb af7e 3dbb
00000020: 1a96 d93a 7552 cfba 8ad2 bd38 46a1 37bb
00000030: dfc7 09bb a96e c73b e132 263c cd05 d7ba
00000040: 56d9 143b e55d 583b c863 1abc 5a4d 8f3b
00000050: 4b40 4abb 65c6 623a 371f 3fbc fdb1 ddbb
00000060: afcc a53b 908c babb fba5 4c3b 34bf 88bb
00000070: 908b 88ba 535a 253c 3c28 053a c42c 1a3c
00000080: 7385 9d39 071b 60bc c2f5 97bc 203e fa3b
00000090: 7da7 52bc f24d 90bb b813 f23a 07f1 8ebb
000000a0: a82f 3dbc 313a 063c b059 813b d8b4 48bc
000000b0: cb9d 5f3b a22c 613b 86b3 90bc 74cb 81bc
000000c0: ebc4 ec3b 3aa7 4f3b e0f7 8e38 3b41 b3ba
000000d0: 0d85 673c ad6a 1a3c 2a65 233c c753 e0ba
000000e0: 3859 fc3a 128f f53a 2ac5 8dbc 3768 d3ba
000000f0: 8980 1abc 577c 843b c19d 9db9 44bb c43c
00000100: 0783 863b 2aeb ccbb a345 e53b da8f 10b9
00000110: cb36 9ebb 432d 01ba 2622 453c 90f7 2a3c
00000120: 9ea0 ca3b efd3 a1bc 47a2 983b 7ae5 413c
00000130: 2fa3 a6bb 4a09 573b 31c8 843c 8e14 0a3c
00000140: f993 2f3c b028 8dbb 95fa 94bc 88d7 503c
00000150: e7f4 4abb 3a98 79bb fb80 473c 5dd1 a3bc
00000160: cd32 1abc 7696 8c3c 4a52 883b 8800 05bc
00000170: eb54 073c 581d 20bb 9b55 483c 9799 15bc
00000180: a889 843b 3d04 473b 7233 363c ba7c 61ba
00000190: 6c28 93bb 5767 d93a 0ae0 b53b 7fa2 56bc
000001a0: 94c1 8f39 8e75 a7bc 16ff 053b 1213 3b3c
000001b0: 03e6 7b3c 0f66 403a 0891 9c3b 287e f1bb
000001c0: 272e ce3b 878c 503b 0dd6 01bc 6530 f13b
000001d0: 4c58 88bb 7b03 cebb 7a28 28ba 856d 433c
000001e0: 0abe d93b a41d 013b 6764 ee3b cc57 483c
000001f0: 23b3 88ba f3f0 2bbb a1c0 09ba 37aa 6bbb
00000200: 77fc 6bbc 97d8 0abb 19e9 9aba f099 d23b
00000210: e8c4 1bbc 4255 f0ba 1f82 0fbc 3b58 0abb
00000220: 7db6 65bc c76f a0bc 53e0 07bb 6fe5 01b9
00000230: 3eb7 c03a 4e6f 943b a9c6 3ebc 01cb 1cbc
00000240: 8362 d4bb 90c1 093b 8940 8e3b 680e 033c
00000250: e70a 923b 6553 5b3c 374e 813b f79b 7ebb
00000260: 4fa5 a93a 7101 2abc fffe ec3b 1311 723b
00000270: 91bd 293c a801 f3bb 385d e7bb 05fa d8ba
00000280: 62af 61bb 0f4b a23a 4d00 4fbb ea66 123b
00000290: af90 183c 3d46 e3ba 34ec 0fba c5c9 b43b
000002a0: 2831 eeb7 53e5 07bc fa09 ae3c 1c21 a63b
000002b0: 304b f13b b879 593a a8bb 4bbc 1530 08bc
000002c0: 5f8a f53b 4c0c 8b3c ffb1 743c 386b 5a3b
000002d0: afa6 263c c018 513c b5c9 2ebb 7aae a43c
000002e0: 0fd6 dfba 12e4 1eb8 b2b6 e3bb 83c1 0cbc
000002f0: 8e6b 973b cb32 313c bc07 08bb d5a8 453c
00000300: 9d05 67bc 5dab e2bb 3b0c a33c bcc2 283b
00000310: 0383 853c 123d 50ba 13a9 ff3b 0a0d a6bb
00000320: 0b5a 8f3c 5780 f5ba 9fa6 f43b 5215 ef3a
00000330: a015 4ebb 1f40 db3b 2c69 bdbb e3a3 0abc
00000340: 25e7 a03c 387c 96bb 0377 743c 478e 37bc
00000350: 1591 f63a bc65 3cbc 7109 c93b ec58 25bc
00000360: b7b2 fd3b 5b31 843b 2765 a239 0805 013c
00000370: 73b9 92bb e953 0fbc 977c 90bb bf0e 6c3a
00000380: cce7 4b3c a165 8c3b badf 86bc 2486 803c
00000390: 5144 1dbb fb0c a43b 8f9e 1bbb c549 81bb
000003a0: d38d 3a3c 60a5 08ba e867 d63b 473e 623b
000003b0: 3f90 90bb 16c1 023c 1233 5dbc c075 12bc
000003c0: e92f 3b3a 9a2a 2cbb e577 ec3b 0d04 cc3c
000003d0: 16d3 333c b28d 51bb ebfc dd3b 6dfc 3dbc
000003e0: e303 193c 7b4b c7bb f95f 13bc db9d 7c3c
000003f0: b268 5c3c 32c3 043c 5586 f83b 97c9 573c
-0.0023870945 0.007914016 -0.0081126755 -0.0004939387 -0.0042706556 -0.0051297233 -0.00637081 -0.002891462
0.001660052 -0.0015817421 9.051438e-05 -0.002801971 -0.0021023673 0.0060861898 0.010143966 -0.0016404927
0.002271255 0.003301495 -0.009423204 0.0043732347 -0.0030861076 0.0008650779 -0.011665157 -0.0067656026
0.0050598006 -0.005693026 0.0031226862 -0.004173184 -0.001041757 0.010092336 0.0005079543 0.009410087
0.000300448 -0.013678319 -0.018549804 0.0076368004 -0.012857315 -0.004403823 0.0018469011 -0.004362229
-0.011547007 0.008192585 0.003947459 -0.012250148 0.0034121152 0.0034358879 -0.017663728 -0.015844084
0.007225623 0.0031685368 6.817258e-05 -0.0013676056 0.014130843 0.009424848 0.00997285 -0.0017114811
0.0019252663 0.0018734655 -0.01730593 -0.0016129081 -0.009430059 0.004043143 -0.0003006291 0.024015076
0.004104975 -0.0062536197 0.0069968267 -0.00013786499 -0.004828309 -0.0004927704 0.012032067 0.010435
0.006183698 -0.019754378 0.004658017 0.011834497 -0.005085371 0.0032811933 0.01620874 0.008427752
0.010716432 -0.004307829 -0.018185893 0.012746699 -0.0030968727 -0.003808512 0.012176747 -0.019997293
-0.009411526 0.01716159 0.0041602002 -0.008117802 0.008259992 -0.0024431553 0.012227441 -0.009130857
0.00404473 0.0030367516 0.011120664 -0.00086016546 -0.0044909026 0.0016586584 0.005550389 -0.0131002655
0.00027419312 -0.020441797 0.0020446233 0.011418121 0.015374663 0.00073394267 0.0047780313 -0.0073697753
0.006292123 0.0031822042 -0.007924569 0.0073605054 -0.0041609164 -0.006287036 -0.0006414723 0.011927967
0.006644969 0.0019701505 0.0072751525 0.012227964 -0.0010429363 -0.0026236146 -0.0005254839 -0.003595961
-0.014403454 -0.0021186227 -0.0011818736 0.006427042 -0.009507395 -0.0018335956 -0.008759051 -0.0021109718
-0.014020559 -0.01958455 -0.0020733073 -0.0001238787 0.0014703048 0.00452987 -0.011644044 -0.009569884
-0.00648147 0.0021019913 0.0043411893 0.00799904 0.004456866 0.013386582 0.0039460915 -0.0038850287
0.0012942943 -0.01037632 0.0072325463 0.0036936447 0.010360138 -0.007415969 -0.007060673 -0.0016554004
-0.0034436812 0.0012381988 -0.0031585873 0.0022339174 0.009311839 -0.0017339658 -0.0005490214 0.005517217
-2.8394701e-05 -0.008294421 0.021244992 0.005069865 0.0073636994 0.00082960306 -0.012434877 -0.008312245
0.0074933018 0.016973637 0.014935016 0.0033328068 0.010171576 0.0127622485 -0.002667052 0.020102728
-0.0017077344 -3.7882543e-05 -0.006949269 -0.008591059 0.004620976 0.010815333 -0.0020756563 0.0120641785
-0.014100459 -0.0069174008 0.019903293 0.0025750836 0.016297823 -0.00079436705 0.0078021376 -0.0050674723
0.01749899 -0.0018730265 0.007466152 0.0018240607 -0.0031445995 0.0066909934 -0.0057803597 -0.008461925
0.019641468 -0.0045924447 0.014920953 -0.011203355 0.0018811548 -0.011498865 0.0061351587 -0.010092001
0.0077422517 0.004034204 0.00030974412 0.007874735 -0.0044776737 -0.008748033 -0.0044093835 0.0009004883
0.012445401 0.004284576 -0.016464103 0.015688963 -0.0023997019 0.00500643 -0.0023745631 -0.0039455616
0.011386353 -0.0005212631 0.0065431483 0.0034521983 -0.0044117267 0.007980606 -0.013500946 -0.008939207
0.0007140623 -0.002627051 0.007216441 0.024904275 0.01097562 -0.0031975326 0.006774535 -0.0115958275
0.009339306 -0.006081996 -0.00899505 0.015418495 0.013452696 0.008103179 0.007584373 0.013170621

action_model._discrete_distribution.branches.1.bias f4 [2]
00000000: 0000 0000 0000 0000
0.0 0.0

action_model._discrete_distribution.branches.2.weight f4 [1, 128]
00000000: ef6b 983c 2a48 2ebc 4ee9 8b3b df97 6cbc
00000010: 989c 7e3b 77fc 07ba 5631 98bc c55f ba3b
00000020: 148c 23ba 0f6c 85bb 7d73 c5ba be12 2c3c
00000030: 28ba de3a 9f73 5f3b 4559 1e3c ce7d af39
00000040: a23f 493a bedd 3abc a3bb b6bb 4b62 f93a
00000050: 3712 c63c 08d9 373c f549 5abb 6aac 67bc
00000060: 271e c53b 4a94 37bc b652 213c 0001 8a3b
00000070: ff8a b1bb 6056 d7bb df15 bd3a b700 d0ba
00000080: cb22 213b d968 baba 3e33 a7bc 6f86 6ebb
00000090: 25db 22bc f1d2 2e3c ec1b 8bbb aa80 bfbb
000000a0: c053 ab3b ce2c 4bba 5e42 9cbc cf7b a1bb
000000b0: e898 fd3b e489 4abc 2a36 0bba 564d 26bb
000000c0: 9581 863b f67b 15ba 13c9 c8bb cf12 a3bc
000000d0: bf2d 8abc 1c5e 423b c6d1 26bc 0fc9 7dbb
000000e0: b0a7 d0bb fbbd 383c 670c b93b aab2 dabb
000000f0: 534e b6bb b2c5 1abc 780e 43bb 0d54 c73b
00000100: 3980 1d3c 0f46 d3b9 1b09 003b 9cd4 91ba
00000110: e753 6739 ff16 033c 5a1d d1bb 7dcd 88bc
00000120: 85ff 633a 094d 2e3c f02b d7bb cbeb 62bc
00000130: 6321 63ba 5b4c efb9 0839 f9bb db1b 51bb
00000140: 778c 60bc 9bdd 35bb 8b21 a9bb 23af 37bb
00000150: bf6b bc3a 00c8 79bb a5a1 173c 915d 10bc
00000160: 0f1f 72bc a38d 61ba d0a0 66bc dccf 32bc
00000170: afea aaba 4a59 1dbb db3c 483b 801c f7bb
00000180: 1dc7 393c 9df6 eb3b a358 b03a d8ab e03a
00000190: d597 9b3b ba1b f3ba 12db a6bb 58d7 5dbb
000001a0: 4d39 61bc 4344 f2ba 10bc 54ba e342 a638
000001b0: fd6a 5abb b3e1 413c bd85 093b 6052 76bb
000001c0: 7749 ad3b e364 493c 8026 d4bb 1d1f a3bc
000001d0: e712 5a3b b815 f6bb cb06 833a 541f 47bc
000001e0: eb11 103b 8754 2e3b a901 c13b 10ad 833b
000001f0: f208 5b3c 9a5d 023c 28fc f5b8 d028 cd3b
0.018606154 -0.010637322 0.0042697554 -0.014440506 0.0038850661 -0.00051874615 -0.018578213 0.005687686
-0.000623883 -0.0040717195 -0.0015064325 0.010502515 0.0016992735 0.0034096015 0.009664838 0.00033472333
0.00076770235 -0.0114054065 -0.0055765673 0.0019026486 0.024178607 0.011221178 -0.0033308242 -0.014140228
0.0060155573 -0.011204788 0.00984638 0.004211545 -0.005418181 -0.006571576 0.0014426074 -0.0015869354
0.0024587389 -0.0014221921 -0.020410176 -0.0036396047 -0.009939943 0.01067041 -0.004245272 -0.0058441954
0.0052284896 -0.0007750512 -0.019074615 -0.004928089 0.007739175 -0.012361977 -0.00053105 -0.0025375686
0.004104803 -0.00057023705 -0.0061274855 -0.01990643 -0.016867517 0.0029658144 -0.01018185 -0.0038724577
-0.006367646 0.011275764 0.0056472304 -0.0066741304 -0.005563536 -0.009446548 -0.0029763263 0.0060830177
0.00961309 -0.00040297254 0.0019536677 -0.0011125985 0.00022061133 0.008001088 -0.006381673 -0.016699547
0.0008697438 0.010638484 -0.006566517 -0.013850163 -0.0008664338 -0.00045642522 -0.0076056756 -0.0031907472
-0.013705364 -0.0027750495 -0.0051614693 -0.0028027974 0.0014375373 -0.0038113594 0.009254848 -0.0088113705
-0.014777913 -0.00086041744 -0.014076427 -0.010913815 -0.0013039912 -0.002400952 0.003055385 -0.0075412393
0.011338976 0.0072010295 0.001345415 0.0017141057 0.0047483244 -0.0018547692 -0.005092033 -0.0033850279
-0.013746572 -0.0018483478 -0.00081151817 7.9279554e-05 -0.003332793 0.011833596 0.0020984255 -0.003758572
0.0052882987 0.01229212 -0.006474316 -0.019912297 0.0033275427 -0.0075099133 0.0009996531 -0.012153465
0.0021983336 0.0026600675 0.0058900905 0.0040184334 0.013368832 0.007956887 -0.00011729478 0.0062609687

action_model._discrete_distribution.branches.3.weight f4 [1, 128]
00000000: dd4f ddbb bf4e 983c 0ba5 453c 7444 203b
00000010: 25d9 c9bb cb71 e5bb 9f12 1abc 4228 87b9
00000020: e36c 253b 4b43 2e3c f7a0 70bb 93e4 a839
00000030: 7ba9 473c 2471 a63c 235b d93b b30c 26bc
00000040: 7aef c3bb fdc2 513a f5d3 e13b ae5d 253c
00000050: 8151 393b cc96 2ebc 6008 6d3b 8d46 c6bb
00000060: a3e0 23bc 434f 23bc 82e7 073b 4f1c 013d
00000070: dd40 91bc a249 683a 7ecc 3f3c 87d2 1bbc
00000080: cbfe 2d39 0d38 35bb 3b1e 78bb a8cd 1abc
00000090: d570 313c 3d49 0c3c 5f34 a1bc aacf 54bc
000000a0: db5a 5f3c 5031 e1ba 7891 8bbb a22c 253c
000000b0: d4a0 b73c e758 a7bb ae72 10bb 4ef5 8abb
000000c0: 9b4a 3c3c a534 e7bb 8fe3 f73a 7b16 633a
000000d0: efd3 7139 db94 adbb 9da5 af3b 729e 523c
000000e0: 6347 973a 1ab2 ddbb c12c ab3b 2bff 9aba
000000f0: 29df b73c a175 903c e774 3a3c ee8e 943b
00000100: ed54 df3b bb17 6eba c04b 6b3a 2a52 3c3c
00000110: eb49 463c 3464 103b 833c 54bc 3076 103c
00000120: 87b1 283c fa05 913c 662c 1bbb c70d a9bb
00000130: 4bf5 4339 6f6a edba e3d5 25bc b9d2 2bbb
00000140: 57b9 9339 4bf0 67bc d370 a63b 535e fb3b
00000150: d094 c73a cfea 9c3c dbda 153c 1a83 f1bb
00000160: 6ddb 453b d36d 5ebb 4dd9 4dbb 07af 463a
00000170: c58c 9c3b c3f1 403c 5d20 c4bb adfc 723b
00000180: e710 69bb 335c 3cbc bfbf d43b 520d 67bb
00000190: 9f51 5539 ef2c 9ebc f8fc 143c 42df 753b
000001a0: 1f42 bbbb d9ec 3e3c 305f 4ebc 71d8 2bba
000001b0: 1ef2 90bb 5866 f1bb 5511 f73b f8e8 763c
000001c0: 02f8 063c db42 453b 0774 9cbb 0542 f0ba
000001d0: fabb 963b 5003 c5bc 183c 77ba 17ca 463c
000001e0: 02de feb8 9fef 12bc e46c 24bc 240f 9bbb
000001f0: 76ce 2bbc af62 043c b90a c83b 93db 8139
-0.006753905 0.018592237 0.012063275 0.0024454864 -0.006159919 -0.0070020906 -0.009403854 -0.000257792
0.0025241903 0.010636161 -0.0036717036 0.00032213758 0.012186403 0.020317622 0.006633179 -0.010134864
-0.0059794756 0.0008001773 0.0068917223 0.010093136 0.002827734 -0.01065607 0.0036168322 -0.006050891
-0.010002288 -0.009967628 0.0020737355 0.031521138 -0.017731125 0.000886107 0.01170647 -0.009510643
0.00016593483 -0.0027651817 -0.0037859816 -0.009448446 0.010830124 0.008562383 -0.019678293 -0.012988964
0.0136325015 -0.0017180834 -0.0042592846 0.010081442 0.022415556 -0.0051070335 -0.002204101 -0.0042406684
0.011492397 -0.0070558363 0.0018912422 0.00086627126 0.00023062502 -0.005297286 0.005360319 0.012855159
0.0011541661 -0.006765616 0.005223841 -0.0011825314 0.022445278 0.017634215 0.011380411 0.00453364
0.006815544 -0.00090825156 0.0008975826 0.011494199 0.012102584 0.0022032382 -0.01295388 0.008817241
0.010296232 0.017703045 -0.0023677587 -0.005159113 0.00018688028 -0.0018113385 -0.010121795 -0.002621813
0.00028176114 -0.014156411 0.0050793677 0.0076711564 0.0015226845 0.019154934 0.0091464175 -0.007370365
0.0030190602 -0.0033939972 -0.003141004 0.00075791817 0.004777523 0.0117763905 -0.0059853033 0.0037076876
-0.0035563053 -0.011496591 0.0064925845 -0.0035255742 0.00020343669 -0.019308535 0.009093516 0.0037517105
-0.0057146694 0.011653149 -0.012595937 -0.00065553846 -0.004423394 -0.0073669367 0.007539908 0.0150701925
0.008237841 0.0030099663 -0.0047745737 -0.0018330222 0.0046000453 -0.024049431 -0.0009431257 0.012133143
-0.00012153016 -0.008968263 -0.010035727 -0.0047320295 -0.010486236 0.008080169 0.006104794 0.00024768393

action_model._discrete_distribution.branches.4.weight f4 [1, 128]
00000000: 72d6 57ba eb36 e23b effe a9ba 42d6 583b
00000010: 5a90 53bc 5230 ecb9 5c18 83bb e31a 1f3c
00000020: 5e8a 303b 7341 b139 a8d3 44bc 2325 eabb
00000030: d498 443c b33d 293c 00f0 3cbb cc51 893b
00000040: 2bc4 473a 5b1b 13bc 3bb5 8c3c cef2 8bbc
00000050: 5eae 263c 17cc 313b 35ed f9bb 97eb 223c
00000060: 4aac 723b cf05 fcbb 2d05 663a 9556 233c
00000070: a714 dc3b 63af 4e3a 4da5 6cbc 4654 0dbc
00000080: ba93 333b 4fc6 a53a 4f18 6b3b 2f07 fdbb
00000090: 2398 7abc d5de 0cbc 13b2 c0bc c4af 1abc
000000a0: cb8d 1a3b ff2a a9bb ae69 32bb 2a20 deba
000000b0: 0c09 9e3b 2aaa 6d3b f3b2 2ebc 7bca 003c
000000c0: 1bc9 80bb 8b65 cd3b bc0b 863b e80e ae3a
000000d0: 12dd e63b 7dc4 763c 540a 4b3c 3501 013c
000000e0: 9f6b d03b 415e 813a 0477 123b 330e 7c3c
000000f0: d8ac 9bbc 3255 563c 3c75 9d3b 2d72 a03b
00000100: c367 623c 7353 46bc 4b88 3abc bbbd 883b
00000110: fb32 b23b 322b 4ebb 3803 ed3a 99d0 0ebc
00000120: f3d3 ba3b 00df d3bb 3b33 fa39 e411 043c
00000130: 675b 2dbc 9175 10bc f654 33bb 4776 b2bb
00000140: cb80 0d3c b690 af3b 5673 3ebc 1f29 0abc
00000150: 1ff8 dabb 9a55 503b a9dc 173b 251c 783c
00000160: 3707 643a 6b18 92bc 0367 9e3b f7d1 fbbb
00000170: 156a 19bb 35b4 f53a 98a5 f6bb deea 84bb
00000180: 9d78 4f3c d554 be3a d92b 13bc cba3 c0bb
00000190: 35cd 683c a3e0 82bb 876d cc3b 27a3 923a
000001a0: 0d00 19bc b803 c13b a7a3 9c3c d2ed 4fb9
000001b0: e7bf a1bc f769 13bc bf73 aebb 2323 3fbb
000001c0: f5cf 9e3a b225 dc3c ead5 293c 0bef 5abb
000001d0: 0920 13bc df1b 873a ba61 e33b 72e0 60bc
000001e0: 3be8 ce3b dbb5 36bc c571 7e3b fbdb 2dbb
000001f0: baf2 d33b 0d18 2ebc f5d3 4fbc 72ee 0d3b
-0.0008233554 0.0069035194 -0.0012969653 0.0033086692 -0.012912834 -0.0004504943 -0.0040007066 0.009711
0.0026937942 0.00033808834 -0.012013353 -0.0071455403 0.011999328 0.010329652 -0.0028829575 0.004190659
0.0007620479 -0.00897869 0.017176261 -0.017083552 0.010173408 0.0027129704 -0.0076271542 0.009943864
0.0037028962 -0.007691122 0.0008774575 0.009969373 0.006716329 0.0007884411 -0.014443708 -0.008626049
0.0027401284 0.0012647602 0.0035872643 -0.0077218036 -0.015295061 -0.008598049 -0.023522412 -0.00944132
0.002358305 -0.0051625962 -0.0027223635 -0.0016946841 0.004822856 0.0036264756 -0.010662782 0.007860775
-0.0039302236 0.0062682084 0.0040907543 0.0013279589 0.0070453966 0.015061495 0.012392599 0.007873823
0.0063604857 0.0009870009 0.002234877 0.015384245 -0.019003317 0.013081836 0.004805235 0.0048964233
0.013818684 -0.012104857 -0.011385034 0.0041730083 0.0054382063 -0.0031458852 0.0018082624 -0.008716726
0.005701536 -0.0064657927 0.00047721885 0.008060906 -0.010580874 -0.0088170925 -0.0027363873 -0.0054462287
0.008636664 0.005357827 -0.011624178 -0.008432656 -0.0066824104 0.0031789304 0.0023172295 0.015143429
0.0008698585 -0.017833909 0.0048340573 -0.007684942 -0.0023409177 0.0018745722 -0.0075270645 -0.0040563187
0.012663034 0.0014521132 -0.008982622 -0.0058789006 0.014209081 -0.003994064 0.0062386426 0.0011187539
-0.009338391 0.005890336 0.019121004 -0.00019829653 -0.019744826 -0.008997432 -0.0053238566 -0.002916523
0.0012116419 0.026873443 0.0103659425 -0.003340664 -0.008979806 0.0010307989 0.00693914 -0.013725387
0.006314305 -0.011151756 0.0038825136 -0.0026528824 0.0064681442 -0.010625851 -0.012684812 0.0021657017
